…
I0811 03:32:40.879835 10215 net.cpp:294] The NetState phase (0) differed from the phase (1) specified by a rule in layer accuracy
I0811 03:32:40.879983 10215 net.cpp:51] Initializing net from parameters:
state {
phase: TRAIN
level: 0
stage: ""
}
layer {
name: "train-data"
type: "Data"
top: "data"
top: "label"
include {
phase: TRAIN
}
transform_param {
mirror: true
crop_size: 227
mean_file: "/home/fei/DIGITS/digits/jobs/20180810-200238-65f4/mean.binaryproto"
}
data_param {
source: "/home/fei/DIGITS/digits/jobs/20180810-200238-65f4/train_db"
batch_size: 32
backend: LMDB
}
}
layer {
name: "conv1"
type: "Convolution"
bottom: "data"
top: "conv1"
convolution_param {
num_output: 64
kernel_size: 3
stride: 2
weight_filler {
type: "xavier"
}
}
}
layer {
name: "relu_conv1"
type: "ReLU"
bottom: "conv1"
top: "conv1"
}
layer {
name: "pool1"
type: "Pooling"
bottom: "conv1"
top: "pool1"
pooling_param {
pool: MAX
kernel_size: 3
stride: 2
}
}
layer {
name: "fire2/squeeze1x1"
type: "Convolution"
bottom: "pool1"
top: "fire2/squeeze1x1"
convolution_param {
num_output: 16
kernel_size: 1
weight_filler {
type: "xavier"
}
}
}
layer {
name: "fire2/relu_squeeze1x1"
type: "ReLU"
bottom: "fire2/squeeze1x1"
top: "fire2/squeeze1x1"
}
layer {
name: "fire2/expand1x1"
type: "Convolution"
bottom: "fire2/squeeze1x1"
top: "fire2/expand1x1"
convolution_param {
num_output: 64
kernel_size: 1
weight_filler {
type: "xavier"
}
}
}
layer {
name: "fire2/relu_expand1x1"
type: "ReLU"
bottom: "fire2/expand1x1"
top: "fire2/expand1x1"
}
layer {
name: "fire2/expand3x3"
type: "Convolution"
bottom: "fire2/squeeze1x1"
top: "fire2/expand3x3"
convolution_param {
num_output: 64
pad: 1
kernel_size: 3
weight_filler {
type: "xavier"
}
}
}
layer {
name: "fire2/relu_expand3x3"
type: "ReLU"
bottom: "fire2/expand3x3"
top: "fire2/expand3x3"
}
layer {
name: "fire2/concat"
type: "Concat"
bottom: "fire2/expand1x1"
bottom: "fire2/expand3x3"
top: "fire2/concat"
}
layer {
name: "fire3/squeeze1x1"
type: "Convolution"
bottom: "fire2/concat"
top: "fire3/squeeze1x1"
convolution_param {
num_output: 16
kernel_size: 1
weight_filler {
type: "xavier"
}
}
}
layer {
name: "fire3/relu_squeeze1x1"
type: "ReLU"
bottom: "fire3/squeeze1x1"
top: "fire3/squeeze1x1"
}
layer {
name: "fire3/expand1x1"
type: "Convolution"
bottom: "fire3/squeeze1x1"
top: "fire3/expand1x1"
convolution_param {
num_output: 64
kernel_size: 1
weight_filler {
type: "xavier"
}
}
}
layer {
name: "fire3/relu_expand1x1"
type: "ReLU"
bottom: "fire3/expand1x1"
top: "fire3/expand1x1"
}
layer {
name: "fire3/expand3x3"
type: "Convolution"
bottom: "fire3/squeeze1x1"
top: "fire3/expand3x3"
convolution_param {
num_output: 64
pad: 1
kernel_size: 3
weight_filler {
type: "xavier"
}
}
}
layer {
name: "fire3/relu_expand3x3"
type: "ReLU"
bottom: "fire3/expand3x3"
top: "fire3/expand3x3"
}
layer {
name: "fire3/concat"
type: "Concat"
bottom: "fire3/expand1x1"
bottom: "fire3/expand3x3"
top: "fire3/concat"
}
layer {
name: "pool3"
type: "Pooling"
bottom: "fire3/concat"
top: "pool3"
pooling_param {
pool: MAX
kernel_size: 3
stride: 2
}
}
layer {
name: "fire4/squeeze1x1"
type: "Convolution"
bottom: "pool3"
top: "fire4/squeeze1x1"
convolution_param {
num_output: 32
kernel_size: 1
weight_filler {
type: "xavier"
}
}
}
layer {
name: "fire4/relu_squeeze1x1"
type: "ReLU"
bottom: "fire4/squeeze1x1"
top: "fire4/squeeze1x1"
}
layer {
name: "fire4/expand1x1"
type: "Convolution"
bottom: "fire4/squeeze1x1"
top: "fire4/expand1x1"
convolution_param {
num_output: 128
kernel_size: 1
weight_filler {
type: "xavier"
}
}
}
layer {
name: "fire4/relu_expand1x1"
type: "ReLU"
bottom: "fire4/expand1x1"
top: "fire4/expand1x1"
}
layer {
name: "fire4/expand3x3"
type: "Convolution"
bottom: "fire4/squeeze1x1"
top: "fire4/expand3x3"
convolution_param {
num_output: 128
pad: 1
kernel_size: 3
weight_filler {
type: "xavier"
}
}
}
layer {
name: "fire4/relu_expand3x3"
type: "ReLU"
bottom: "fire4/expand3x3"
top: "fire4/expand3x3"
}
layer {
name: "fire4/concat"
type: "Concat"
bottom: "fire4/expand1x1"
bottom: "fire4/expand3x3"
top: "fire4/concat"
}
layer {
name: "fire5/squeeze1x1"
type: "Convolution"
bottom: "fire4/concat"
top: "fire5/squeeze1x1"
convolution_param {
num_output: 32
kernel_size: 1
weight_filler {
type: "xavier"
}
}
}
layer {
name: "fire5/relu_squeeze1x1"
type: "ReLU"
bottom: "fire5/squeeze1x1"
top: "fire5/squeeze1x1"
}
layer {
name: "fire5/expand1x1"
type: "Convolution"
bottom: "fire5/squeeze1x1"
top: "fire5/expand1x1"
convolution_param {
num_output: 128
kernel_size: 1
weight_filler {
type: "xavier"
}
}
}
layer {
name: "fire5/relu_expand1x1"
type: "ReLU"
bottom: "fire5/expand1x1"
top: "fire5/expand1x1"
}
layer {
name: "fire5/expand3x3"
type: "Convolution"
bottom: "fire5/squeeze1x1"
top: "fire5/expand3x3"
convolution_param {
num_output: 128
pad: 1
kernel_size: 3
weight_filler {
type: "xavier"
}
}
}
layer {
name: "fire5/relu_expand3x3"
type: "ReLU"
bottom: "fire5/expand3x3"
top: "fire5/expand3x3"
}
layer {
name: "fire5/concat"
type: "Concat"
bottom: "fire5/expand1x1"
bottom: "fire5/expand3x3"
top: "fire5/concat"
}
layer {
name: "pool5"
type: "Pooling"
bottom: "fire5/concat"
top: "pool5"
pooling_param {
pool: MAX
kernel_size: 3
stride: 2
}
}
layer {
name: "fire6/squeeze1x1"
type: "Convolution"
bottom: "pool5"
top: "fire6/squeeze1x1"
convolution_param {
num_output: 48
kernel_size: 1
weight_filler {
type: "xavier"
}
}
}
layer {
name: "fire6/relu_squeeze1x1"
type: "ReLU"
bottom: "fire6/squeeze1x1"
top: "fire6/squeeze1x1"
}
layer {
name: "fire6/expand1x1"
type: "Convolution"
bottom: "fire6/squeeze1x1"
top: "fire6/expand1x1"
convolution_param {
num_output: 192
kernel_size: 1
weight_filler {
type: "xavier"
}
}
}
layer {
name: "fire6/relu_expand1x1"
type: "ReLU"
bottom: "fire6/expand1x1"
top: "fire6/expand1x1"
}
layer {
name: "fire6/expand3x3"
type: "Convolution"
bottom: "fire6/squeeze1x1"
top: "fire6/expand3x3"
convolution_param {
num_output: 192
pad: 1
kernel_size: 3
weight_filler {
type: "xavier"
}
}
}
layer {
name: "fire6/relu_expand3x3"
type: "ReLU"
bottom: "fire6/expand3x3"
top: "fire6/expand3x3"
}
layer {
name: "fire6/concat"
type: "Concat"
bottom: "fire6/expand1x1"
bottom: "fire6/expand3x3"
top: "fire6/concat"
}
layer {
name: "fire7/squeeze1x1"
type: "Convolution"
bottom: "fire6/concat"
top: "fire7/squeeze1x1"
convolution_param {
num_output: 48
kernel_size: 1
weight_filler {
type: "xavier"
}
}
}
layer {
name: "fire7/relu_squeeze1x1"
type: "ReLU"
bottom: "fire7/squeeze1x1"
top: "fire7/squeeze1x1"
}
layer {
name: "fire7/expand1x1"
type: "Convolution"
bottom: "fire7/squeeze1x1"
top: "fire7/expand1x1"
convolution_param {
num_output: 192
kernel_size: 1
weight_filler {
type: "xavier"
}
}
}
layer {
name: "fire7/relu_expand1x1"
type: "ReLU"
bottom: "fire7/expand1x1"
top: "fire7/expand1x1"
}
layer {
name: "fire7/expand3x3"
type: "Convolution"
bottom: "fire7/squeeze1x1"
top: "fire7/expand3x3"
convolution_param {
num_output: 192
pad: 1
kernel_size: 3
weight_filler {
type: "xavier"
}
}
}
layer {
name: "fire7/relu_expand3x3"
type: "ReLU"
bottom: "fire7/expand3x3"
top: "fire7/expand3x3"
}
layer {
name: "fire7/concat"
type: "Concat"
bottom: "fire7/expand1x1"
bottom: "fire7/expand3x3"
top: "fire7/concat"
}
layer {
name: "fire8/squeeze1x1"
type: "Convolution"
bottom: "fire7/concat"
top: "fire8/squeeze1x1"
convolution_param {
num_output: 64
kernel_size: 1
weight_filler {
type: "xavier"
}
}
}
layer {
name: "fire8/relu_squeeze1x1"
type: "ReLU"
bottom: "fire8/squeeze1x1"
top: "fire8/squeeze1x1"
}
layer {
name: "fire8/expand1x1"
type: "Convolution"
bottom: "fire8/squeeze1x1"
top: "fire8/expand1x1"
convolution_param {
num_output: 256
kernel_size: 1
weight_filler {
type: "xavier"
}
}
}
layer {
name: "fire8/relu_expand1x1"
type: "ReLU"
bottom: "fire8/expand1x1"
top: "fire8/expand1x1"
}
layer {
name: "fire8/expand3x3"
type: "Convolution"
bottom: "fire8/squeeze1x1"
top: "fire8/expand3x3"
convolution_param {
num_output: 256
pad: 1
kernel_size: 3
weight_filler {
type: "xavier"
}
}
}
layer {
name: "fire8/relu_expand3x3"
type: "ReLU"
bottom: "fire8/expand3x3"
top: "fire8/expand3x3"
}
layer {
name: "fire8/concat"
type: "Concat"
bottom: "fire8/expand1x1"
bottom: "fire8/expand3x3"
top: "fire8/concat"
}
layer {
name: "fire9/squeeze1x1"
type: "Convolution"
bottom: "fire8/concat"
top: "fire9/squeeze1x1"
convolution_param {
num_output: 64
kernel_size: 1
weight_filler {
type: "xavier"
}
}
}
layer {
name: "fire9/relu_squeeze1x1"
type: "ReLU"
bottom: "fire9/squeeze1x1"
top: "fire9/squeeze1x1"
}
layer {
name: "fire9/expand1x1"
type: "Convolution"
bottom: "fire9/squeeze1x1"
top: "fire9/expand1x1"
convolution_param {
num_output: 256
kernel_size: 1
weight_filler {
type: "xavier"
}
}
}
layer {
name: "fire9/relu_expand1x1"
type: "ReLU"
bottom: "fire9/expand1x1"
top: "fire9/expand1x1"
}
layer {
name: "fire9/expand3x3"
type: "Convolution"
bottom: "fire9/squeeze1x1"
top: "fire9/expand3x3"
convolution_param {
num_output: 256
pad: 1
kernel_size: 3
weight_filler {
type: "xavier"
}
}
}
layer {
name: "fire9/relu_expand3x3"
type: "ReLU"
bottom: "fire9/expand3x3"
top: "fire9/expand3x3"
}
layer {
name: "fire9/concat"
type: "Concat"
bottom: "fire9/expand1x1"
bottom: "fire9/expand3x3"
top: "fire9/concat"
}
layer {
name: "drop9"
type: "Dropout"
bottom: "fire9/concat"
top: "fire9/concat"
dropout_param {
dropout_ratio: 0.5
}
}
layer {
name: "conv10"
type: "Convolution"
bottom: "fire9/concat"
top: "conv10"
convolution_param {
num_output: 1000
kernel_size: 1
weight_filler {
type: "gaussian"
mean: 0
std: 0.01
}
}
}
layer {
name: "relu_conv10"
type: "ReLU"
bottom: "conv10"
top: "conv10"
}
layer {
name: "pool10"
type: "Pooling"
bottom: "conv10"
top: "pool10"
pooling_param {
pool: AVE
global_pooling: true
}
}
layer {
name: "loss"
type: "SoftmaxWithLoss"
bottom: "pool10"
bottom: "label"
top: "loss"
}
I0811 03:32:40.880178 10215 layer_factory.hpp:77] Creating layer train-data
I0811 03:32:40.880254 10215 db_lmdb.cpp:35] Opened lmdb /home/fei/DIGITS/digits/jobs/20180810-200238-65f4/train_db
I0811 03:32:40.880277 10215 net.cpp:84] Creating Layer train-data
I0811 03:32:40.880282 10215 net.cpp:380] train-data -> data
I0811 03:32:40.880296 10215 net.cpp:380] train-data -> label
I0811 03:32:40.880304 10215 data_transformer.cpp:25] Loading mean file from: /home/fei/DIGITS/digits/jobs/20180810-200238-65f4/mean.binaryproto
I0811 03:32:40.884845 10215 data_layer.cpp:45] output data size: 32,3,227,227
I0811 03:32:40.913805 10215 net.cpp:122] Setting up train-data
I0811 03:32:40.913841 10215 net.cpp:129] Top shape: 32 3 227 227 (4946784)
I0811 03:32:40.913846 10215 net.cpp:129] Top shape: 32 (32)
I0811 03:32:40.913848 10215 net.cpp:137] Memory required for data: 19787264
I0811 03:32:40.913856 10215 layer_factory.hpp:77] Creating layer conv1
I0811 03:32:40.913869 10215 net.cpp:84] Creating Layer conv1
I0811 03:32:40.913873 10215 net.cpp:406] conv1 <- data
I0811 03:32:40.913882 10215 net.cpp:380] conv1 -> conv1
I0811 03:32:40.915514 10215 net.cpp:122] Setting up conv1
I0811 03:32:40.915529 10215 net.cpp:129] Top shape: 32 64 113 113 (26150912)
I0811 03:32:40.915531 10215 net.cpp:137] Memory required for data: 124390912
I0811 03:32:40.915541 10215 layer_factory.hpp:77] Creating layer relu_conv1
I0811 03:32:40.915566 10215 net.cpp:84] Creating Layer relu_conv1
I0811 03:32:40.915570 10215 net.cpp:406] relu_conv1 <- conv1
I0811 03:32:40.915572 10215 net.cpp:367] relu_conv1 -> conv1 (in-place)
I0811 03:32:40.915580 10215 net.cpp:122] Setting up relu_conv1
I0811 03:32:40.915582 10215 net.cpp:129] Top shape: 32 64 113 113 (26150912)
I0811 03:32:40.915585 10215 net.cpp:137] Memory required for data: 228994560
I0811 03:32:40.915586 10215 layer_factory.hpp:77] Creating layer pool1
I0811 03:32:40.915591 10215 net.cpp:84] Creating Layer pool1
I0811 03:32:40.915593 10215 net.cpp:406] pool1 <- conv1
I0811 03:32:40.915596 10215 net.cpp:380] pool1 -> pool1
I0811 03:32:40.915633 10215 net.cpp:122] Setting up pool1
I0811 03:32:40.915637 10215 net.cpp:129] Top shape: 32 64 56 56 (6422528)
I0811 03:32:40.915639 10215 net.cpp:137] Memory required for data: 254684672
I0811 03:32:40.915642 10215 layer_factory.hpp:77] Creating layer fire2/squeeze1x1
I0811 03:32:40.915648 10215 net.cpp:84] Creating Layer fire2/squeeze1x1
I0811 03:32:40.915652 10215 net.cpp:406] fire2/squeeze1x1 <- pool1
I0811 03:32:40.915654 10215 net.cpp:380] fire2/squeeze1x1 -> fire2/squeeze1x1
I0811 03:32:40.916532 10215 net.cpp:122] Setting up fire2/squeeze1x1
I0811 03:32:40.916550 10215 net.cpp:129] Top shape: 32 16 56 56 (1605632)
I0811 03:32:40.916553 10215 net.cpp:137] Memory required for data: 261107200
I0811 03:32:40.916560 10215 layer_factory.hpp:77] Creating layer fire2/relu_squeeze1x1
I0811 03:32:40.916566 10215 net.cpp:84] Creating Layer fire2/relu_squeeze1x1
I0811 03:32:40.916569 10215 net.cpp:406] fire2/relu_squeeze1x1 <- fire2/squeeze1x1
I0811 03:32:40.916574 10215 net.cpp:367] fire2/relu_squeeze1x1 -> fire2/squeeze1x1 (in-place)
I0811 03:32:40.916579 10215 net.cpp:122] Setting up fire2/relu_squeeze1x1
I0811 03:32:40.916581 10215 net.cpp:129] Top shape: 32 16 56 56 (1605632)
I0811 03:32:40.916584 10215 net.cpp:137] Memory required for data: 267529728
I0811 03:32:40.916585 10215 layer_factory.hpp:77] Creating layer fire2/squeeze1x1_fire2/relu_squeeze1x1_0_split
I0811 03:32:40.916589 10215 net.cpp:84] Creating Layer fire2/squeeze1x1_fire2/relu_squeeze1x1_0_split
I0811 03:32:40.916591 10215 net.cpp:406] fire2/squeeze1x1_fire2/relu_squeeze1x1_0_split <- fire2/squeeze1x1
I0811 03:32:40.916594 10215 net.cpp:380] fire2/squeeze1x1_fire2/relu_squeeze1x1_0_split -> fire2/squeeze1x1_fire2/relu_squeeze1x1_0_split_0
I0811 03:32:40.916599 10215 net.cpp:380] fire2/squeeze1x1_fire2/relu_squeeze1x1_0_split -> fire2/squeeze1x1_fire2/relu_squeeze1x1_0_split_1
I0811 03:32:40.916625 10215 net.cpp:122] Setting up fire2/squeeze1x1_fire2/relu_squeeze1x1_0_split
I0811 03:32:40.916628 10215 net.cpp:129] Top shape: 32 16 56 56 (1605632)
I0811 03:32:40.916630 10215 net.cpp:129] Top shape: 32 16 56 56 (1605632)
I0811 03:32:40.916649 10215 net.cpp:137] Memory required for data: 280374784
I0811 03:32:40.916651 10215 layer_factory.hpp:77] Creating layer fire2/expand1x1
I0811 03:32:40.916657 10215 net.cpp:84] Creating Layer fire2/expand1x1
I0811 03:32:40.916659 10215 net.cpp:406] fire2/expand1x1 <- fire2/squeeze1x1_fire2/relu_squeeze1x1_0_split_0
I0811 03:32:40.916663 10215 net.cpp:380] fire2/expand1x1 -> fire2/expand1x1
I0811 03:32:40.916841 10215 net.cpp:122] Setting up fire2/expand1x1
I0811 03:32:40.916844 10215 net.cpp:129] Top shape: 32 64 56 56 (6422528)
I0811 03:32:40.916846 10215 net.cpp:137] Memory required for data: 306064896
I0811 03:32:40.916852 10215 layer_factory.hpp:77] Creating layer fire2/relu_expand1x1
I0811 03:32:40.916857 10215 net.cpp:84] Creating Layer fire2/relu_expand1x1
I0811 03:32:40.916858 10215 net.cpp:406] fire2/relu_expand1x1 <- fire2/expand1x1
I0811 03:32:40.916862 10215 net.cpp:367] fire2/relu_expand1x1 -> fire2/expand1x1 (in-place)
I0811 03:32:40.916865 10215 net.cpp:122] Setting up fire2/relu_expand1x1
I0811 03:32:40.916867 10215 net.cpp:129] Top shape: 32 64 56 56 (6422528)
I0811 03:32:40.916869 10215 net.cpp:137] Memory required for data: 331755008
I0811 03:32:40.916872 10215 layer_factory.hpp:77] Creating layer fire2/expand3x3
I0811 03:32:40.916875 10215 net.cpp:84] Creating Layer fire2/expand3x3
I0811 03:32:40.916877 10215 net.cpp:406] fire2/expand3x3 <- fire2/squeeze1x1_fire2/relu_squeeze1x1_0_split_1
I0811 03:32:40.916882 10215 net.cpp:380] fire2/expand3x3 -> fire2/expand3x3
I0811 03:32:40.918648 10215 net.cpp:122] Setting up fire2/expand3x3
I0811 03:32:40.918660 10215 net.cpp:129] Top shape: 32 64 56 56 (6422528)
I0811 03:32:40.918663 10215 net.cpp:137] Memory required for data: 357445120
I0811 03:32:40.918668 10215 layer_factory.hpp:77] Creating layer fire2/relu_expand3x3
I0811 03:32:40.918673 10215 net.cpp:84] Creating Layer fire2/relu_expand3x3
I0811 03:32:40.918675 10215 net.cpp:406] fire2/relu_expand3x3 <- fire2/expand3x3
I0811 03:32:40.918678 10215 net.cpp:367] fire2/relu_expand3x3 -> fire2/expand3x3 (in-place)
I0811 03:32:40.918684 10215 net.cpp:122] Setting up fire2/relu_expand3x3
I0811 03:32:40.918686 10215 net.cpp:129] Top shape: 32 64 56 56 (6422528)
I0811 03:32:40.918689 10215 net.cpp:137] Memory required for data: 383135232
I0811 03:32:40.918690 10215 layer_factory.hpp:77] Creating layer fire2/concat
I0811 03:32:40.918700 10215 net.cpp:84] Creating Layer fire2/concat
I0811 03:32:40.918702 10215 net.cpp:406] fire2/concat <- fire2/expand1x1
I0811 03:32:40.918705 10215 net.cpp:406] fire2/concat <- fire2/expand3x3
I0811 03:32:40.918709 10215 net.cpp:380] fire2/concat -> fire2/concat
I0811 03:32:40.918727 10215 net.cpp:122] Setting up fire2/concat
I0811 03:32:40.918731 10215 net.cpp:129] Top shape: 32 128 56 56 (12845056)
I0811 03:32:40.918732 10215 net.cpp:137] Memory required for data: 434515456
I0811 03:32:40.918735 10215 layer_factory.hpp:77] Creating layer fire3/squeeze1x1
I0811 03:32:40.918740 10215 net.cpp:84] Creating Layer fire3/squeeze1x1
I0811 03:32:40.918742 10215 net.cpp:406] fire3/squeeze1x1 <- fire2/concat
I0811 03:32:40.918745 10215 net.cpp:380] fire3/squeeze1x1 -> fire3/squeeze1x1
I0811 03:32:40.918903 10215 net.cpp:122] Setting up fire3/squeeze1x1
I0811 03:32:40.918910 10215 net.cpp:129] Top shape: 32 16 56 56 (1605632)
I0811 03:32:40.918912 10215 net.cpp:137] Memory required for data: 440937984
I0811 03:32:40.918918 10215 layer_factory.hpp:77] Creating layer fire3/relu_squeeze1x1
I0811 03:32:40.918922 10215 net.cpp:84] Creating Layer fire3/relu_squeeze1x1
I0811 03:32:40.918925 10215 net.cpp:406] fire3/relu_squeeze1x1 <- fire3/squeeze1x1
I0811 03:32:40.918927 10215 net.cpp:367] fire3/relu_squeeze1x1 -> fire3/squeeze1x1 (in-place)
I0811 03:32:40.918931 10215 net.cpp:122] Setting up fire3/relu_squeeze1x1
I0811 03:32:40.918934 10215 net.cpp:129] Top shape: 32 16 56 56 (1605632)
I0811 03:32:40.918936 10215 net.cpp:137] Memory required for data: 447360512
I0811 03:32:40.918938 10215 layer_factory.hpp:77] Creating layer fire3/squeeze1x1_fire3/relu_squeeze1x1_0_split
I0811 03:32:40.918985 10215 net.cpp:84] Creating Layer fire3/squeeze1x1_fire3/relu_squeeze1x1_0_split
I0811 03:32:40.918988 10215 net.cpp:406] fire3/squeeze1x1_fire3/relu_squeeze1x1_0_split <- fire3/squeeze1x1
I0811 03:32:40.918992 10215 net.cpp:380] fire3/squeeze1x1_fire3/relu_squeeze1x1_0_split -> fire3/squeeze1x1_fire3/relu_squeeze1x1_0_split_0
I0811 03:32:40.918995 10215 net.cpp:380] fire3/squeeze1x1_fire3/relu_squeeze1x1_0_split -> fire3/squeeze1x1_fire3/relu_squeeze1x1_0_split_1
I0811 03:32:40.919019 10215 net.cpp:122] Setting up fire3/squeeze1x1_fire3/relu_squeeze1x1_0_split
I0811 03:32:40.919023 10215 net.cpp:129] Top shape: 32 16 56 56 (1605632)
I0811 03:32:40.919025 10215 net.cpp:129] Top shape: 32 16 56 56 (1605632)
I0811 03:32:40.919028 10215 net.cpp:137] Memory required for data: 460205568
I0811 03:32:40.919029 10215 layer_factory.hpp:77] Creating layer fire3/expand1x1
I0811 03:32:40.919034 10215 net.cpp:84] Creating Layer fire3/expand1x1
I0811 03:32:40.919036 10215 net.cpp:406] fire3/expand1x1 <- fire3/squeeze1x1_fire3/relu_squeeze1x1_0_split_0
I0811 03:32:40.919039 10215 net.cpp:380] fire3/expand1x1 -> fire3/expand1x1
I0811 03:32:40.919184 10215 net.cpp:122] Setting up fire3/expand1x1
I0811 03:32:40.919189 10215 net.cpp:129] Top shape: 32 64 56 56 (6422528)
I0811 03:32:40.919191 10215 net.cpp:137] Memory required for data: 485895680
I0811 03:32:40.919194 10215 layer_factory.hpp:77] Creating layer fire3/relu_expand1x1
I0811 03:32:40.919199 10215 net.cpp:84] Creating Layer fire3/relu_expand1x1
I0811 03:32:40.919201 10215 net.cpp:406] fire3/relu_expand1x1 <- fire3/expand1x1
I0811 03:32:40.919204 10215 net.cpp:367] fire3/relu_expand1x1 -> fire3/expand1x1 (in-place)
I0811 03:32:40.919209 10215 net.cpp:122] Setting up fire3/relu_expand1x1
I0811 03:32:40.919210 10215 net.cpp:129] Top shape: 32 64 56 56 (6422528)
I0811 03:32:40.919212 10215 net.cpp:137] Memory required for data: 511585792
I0811 03:32:40.919214 10215 layer_factory.hpp:77] Creating layer fire3/expand3x3
I0811 03:32:40.919219 10215 net.cpp:84] Creating Layer fire3/expand3x3
I0811 03:32:40.919221 10215 net.cpp:406] fire3/expand3x3 <- fire3/squeeze1x1_fire3/relu_squeeze1x1_0_split_1
I0811 03:32:40.919224 10215 net.cpp:380] fire3/expand3x3 -> fire3/expand3x3
I0811 03:32:40.919416 10215 net.cpp:122] Setting up fire3/expand3x3
I0811 03:32:40.919422 10215 net.cpp:129] Top shape: 32 64 56 56 (6422528)
I0811 03:32:40.919425 10215 net.cpp:137] Memory required for data: 537275904
I0811 03:32:40.919427 10215 layer_factory.hpp:77] Creating layer fire3/relu_expand3x3
I0811 03:32:40.919430 10215 net.cpp:84] Creating Layer fire3/relu_expand3x3
I0811 03:32:40.919433 10215 net.cpp:406] fire3/relu_expand3x3 <- fire3/expand3x3
I0811 03:32:40.919435 10215 net.cpp:367] fire3/relu_expand3x3 -> fire3/expand3x3 (in-place)
I0811 03:32:40.919440 10215 net.cpp:122] Setting up fire3/relu_expand3x3
I0811 03:32:40.919442 10215 net.cpp:129] Top shape: 32 64 56 56 (6422528)
I0811 03:32:40.919445 10215 net.cpp:137] Memory required for data: 562966016
I0811 03:32:40.919446 10215 layer_factory.hpp:77] Creating layer fire3/concat
I0811 03:32:40.919466 10215 net.cpp:84] Creating Layer fire3/concat
I0811 03:32:40.919467 10215 net.cpp:406] fire3/concat <- fire3/expand1x1
I0811 03:32:40.919469 10215 net.cpp:406] fire3/concat <- fire3/expand3x3
I0811 03:32:40.919492 10215 net.cpp:380] fire3/concat -> fire3/concat
I0811 03:32:40.919504 10215 net.cpp:122] Setting up fire3/concat
I0811 03:32:40.919508 10215 net.cpp:129] Top shape: 32 128 56 56 (12845056)
I0811 03:32:40.919510 10215 net.cpp:137] Memory required for data: 614346240
I0811 03:32:40.919512 10215 layer_factory.hpp:77] Creating layer pool3
I0811 03:32:40.919517 10215 net.cpp:84] Creating Layer pool3
I0811 03:32:40.919518 10215 net.cpp:406] pool3 <- fire3/concat
I0811 03:32:40.919522 10215 net.cpp:380] pool3 -> pool3
I0811 03:32:40.919561 10215 net.cpp:122] Setting up pool3
I0811 03:32:40.919566 10215 net.cpp:129] Top shape: 32 128 28 28 (3211264)
I0811 03:32:40.919570 10215 net.cpp:137] Memory required for data: 627191296
I0811 03:32:40.919572 10215 layer_factory.hpp:77] Creating layer fire4/squeeze1x1
I0811 03:32:40.919585 10215 net.cpp:84] Creating Layer fire4/squeeze1x1
I0811 03:32:40.919589 10215 net.cpp:406] fire4/squeeze1x1 <- pool3
I0811 03:32:40.919591 10215 net.cpp:380] fire4/squeeze1x1 -> fire4/squeeze1x1
I0811 03:32:40.919764 10215 net.cpp:122] Setting up fire4/squeeze1x1
I0811 03:32:40.919770 10215 net.cpp:129] Top shape: 32 32 28 28 (802816)
I0811 03:32:40.919772 10215 net.cpp:137] Memory required for data: 630402560
I0811 03:32:40.919776 10215 layer_factory.hpp:77] Creating layer fire4/relu_squeeze1x1
I0811 03:32:40.919780 10215 net.cpp:84] Creating Layer fire4/relu_squeeze1x1
I0811 03:32:40.919781 10215 net.cpp:406] fire4/relu_squeeze1x1 <- fire4/squeeze1x1
I0811 03:32:40.919783 10215 net.cpp:367] fire4/relu_squeeze1x1 -> fire4/squeeze1x1 (in-place)
I0811 03:32:40.919787 10215 net.cpp:122] Setting up fire4/relu_squeeze1x1
I0811 03:32:40.919790 10215 net.cpp:129] Top shape: 32 32 28 28 (802816)
I0811 03:32:40.919791 10215 net.cpp:137] Memory required for data: 633613824
I0811 03:32:40.919793 10215 layer_factory.hpp:77] Creating layer fire4/squeeze1x1_fire4/relu_squeeze1x1_0_split
I0811 03:32:40.919796 10215 net.cpp:84] Creating Layer fire4/squeeze1x1_fire4/relu_squeeze1x1_0_split
I0811 03:32:40.919798 10215 net.cpp:406] fire4/squeeze1x1_fire4/relu_squeeze1x1_0_split <- fire4/squeeze1x1
I0811 03:32:40.919801 10215 net.cpp:380] fire4/squeeze1x1_fire4/relu_squeeze1x1_0_split -> fire4/squeeze1x1_fire4/relu_squeeze1x1_0_split_0
I0811 03:32:40.919804 10215 net.cpp:380] fire4/squeeze1x1_fire4/relu_squeeze1x1_0_split -> fire4/squeeze1x1_fire4/relu_squeeze1x1_0_split_1
I0811 03:32:40.919824 10215 net.cpp:122] Setting up fire4/squeeze1x1_fire4/relu_squeeze1x1_0_split
I0811 03:32:40.919827 10215 net.cpp:129] Top shape: 32 32 28 28 (802816)
I0811 03:32:40.919831 10215 net.cpp:129] Top shape: 32 32 28 28 (802816)
I0811 03:32:40.919832 10215 net.cpp:137] Memory required for data: 640036352
I0811 03:32:40.919834 10215 layer_factory.hpp:77] Creating layer fire4/expand1x1
I0811 03:32:40.919838 10215 net.cpp:84] Creating Layer fire4/expand1x1
I0811 03:32:40.919840 10215 net.cpp:406] fire4/expand1x1 <- fire4/squeeze1x1_fire4/relu_squeeze1x1_0_split_0
I0811 03:32:40.919843 10215 net.cpp:380] fire4/expand1x1 -> fire4/expand1x1
I0811 03:32:40.919998 10215 net.cpp:122] Setting up fire4/expand1x1
I0811 03:32:40.920002 10215 net.cpp:129] Top shape: 32 128 28 28 (3211264)
I0811 03:32:40.920004 10215 net.cpp:137] Memory required for data: 652881408
I0811 03:32:40.920011 10215 layer_factory.hpp:77] Creating layer fire4/relu_expand1x1
I0811 03:32:40.920013 10215 net.cpp:84] Creating Layer fire4/relu_expand1x1
I0811 03:32:40.920015 10215 net.cpp:406] fire4/relu_expand1x1 <- fire4/expand1x1
I0811 03:32:40.920018 10215 net.cpp:367] fire4/relu_expand1x1 -> fire4/expand1x1 (in-place)
I0811 03:32:40.920022 10215 net.cpp:122] Setting up fire4/relu_expand1x1
I0811 03:32:40.920024 10215 net.cpp:129] Top shape: 32 128 28 28 (3211264)
I0811 03:32:40.920027 10215 net.cpp:137] Memory required for data: 665726464
I0811 03:32:40.920027 10215 layer_factory.hpp:77] Creating layer fire4/expand3x3
I0811 03:32:40.920032 10215 net.cpp:84] Creating Layer fire4/expand3x3
I0811 03:32:40.920033 10215 net.cpp:406] fire4/expand3x3 <- fire4/squeeze1x1_fire4/relu_squeeze1x1_0_split_1
I0811 03:32:40.920037 10215 net.cpp:380] fire4/expand3x3 -> fire4/expand3x3
I0811 03:32:40.921058 10215 net.cpp:122] Setting up fire4/expand3x3
I0811 03:32:40.921070 10215 net.cpp:129] Top shape: 32 128 28 28 (3211264)
I0811 03:32:40.921073 10215 net.cpp:137] Memory required for data: 678571520
I0811 03:32:40.921077 10215 layer_factory.hpp:77] Creating layer fire4/relu_expand3x3
I0811 03:32:40.921082 10215 net.cpp:84] Creating Layer fire4/relu_expand3x3
I0811 03:32:40.921085 10215 net.cpp:406] fire4/relu_expand3x3 <- fire4/expand3x3
I0811 03:32:40.921089 10215 net.cpp:367] fire4/relu_expand3x3 -> fire4/expand3x3 (in-place)
I0811 03:32:40.921094 10215 net.cpp:122] Setting up fire4/relu_expand3x3
I0811 03:32:40.921097 10215 net.cpp:129] Top shape: 32 128 28 28 (3211264)
I0811 03:32:40.921111 10215 net.cpp:137] Memory required for data: 691416576
I0811 03:32:40.921113 10215 layer_factory.hpp:77] Creating layer fire4/concat
I0811 03:32:40.921118 10215 net.cpp:84] Creating Layer fire4/concat
I0811 03:32:40.921119 10215 net.cpp:406] fire4/concat <- fire4/expand1x1
I0811 03:32:40.921123 10215 net.cpp:406] fire4/concat <- fire4/expand3x3
I0811 03:32:40.921125 10215 net.cpp:380] fire4/concat -> fire4/concat
I0811 03:32:40.921141 10215 net.cpp:122] Setting up fire4/concat
I0811 03:32:40.921144 10215 net.cpp:129] Top shape: 32 256 28 28 (6422528)
I0811 03:32:40.921146 10215 net.cpp:137] Memory required for data: 717106688
I0811 03:32:40.921149 10215 layer_factory.hpp:77] Creating layer fire5/squeeze1x1
I0811 03:32:40.921152 10215 net.cpp:84] Creating Layer fire5/squeeze1x1
I0811 03:32:40.921155 10215 net.cpp:406] fire5/squeeze1x1 <- fire4/concat
I0811 03:32:40.921159 10215 net.cpp:380] fire5/squeeze1x1 -> fire5/squeeze1x1
I0811 03:32:40.921344 10215 net.cpp:122] Setting up fire5/squeeze1x1
I0811 03:32:40.921349 10215 net.cpp:129] Top shape: 32 32 28 28 (802816)
I0811 03:32:40.921350 10215 net.cpp:137] Memory required for data: 720317952
I0811 03:32:40.921355 10215 layer_factory.hpp:77] Creating layer fire5/relu_squeeze1x1
I0811 03:32:40.921357 10215 net.cpp:84] Creating Layer fire5/relu_squeeze1x1
I0811 03:32:40.921360 10215 net.cpp:406] fire5/relu_squeeze1x1 <- fire5/squeeze1x1
I0811 03:32:40.921362 10215 net.cpp:367] fire5/relu_squeeze1x1 -> fire5/squeeze1x1 (in-place)
I0811 03:32:40.921365 10215 net.cpp:122] Setting up fire5/relu_squeeze1x1
I0811 03:32:40.921368 10215 net.cpp:129] Top shape: 32 32 28 28 (802816)
I0811 03:32:40.921370 10215 net.cpp:137] Memory required for data: 723529216
I0811 03:32:40.921372 10215 layer_factory.hpp:77] Creating layer fire5/squeeze1x1_fire5/relu_squeeze1x1_0_split
I0811 03:32:40.921375 10215 net.cpp:84] Creating Layer fire5/squeeze1x1_fire5/relu_squeeze1x1_0_split
I0811 03:32:40.921377 10215 net.cpp:406] fire5/squeeze1x1_fire5/relu_squeeze1x1_0_split <- fire5/squeeze1x1
I0811 03:32:40.921380 10215 net.cpp:380] fire5/squeeze1x1_fire5/relu_squeeze1x1_0_split -> fire5/squeeze1x1_fire5/relu_squeeze1x1_0_split_0
I0811 03:32:40.921383 10215 net.cpp:380] fire5/squeeze1x1_fire5/relu_squeeze1x1_0_split -> fire5/squeeze1x1_fire5/relu_squeeze1x1_0_split_1
I0811 03:32:40.921403 10215 net.cpp:122] Setting up fire5/squeeze1x1_fire5/relu_squeeze1x1_0_split
I0811 03:32:40.921406 10215 net.cpp:129] Top shape: 32 32 28 28 (802816)
I0811 03:32:40.921409 10215 net.cpp:129] Top shape: 32 32 28 28 (802816)
I0811 03:32:40.921411 10215 net.cpp:137] Memory required for data: 729951744
I0811 03:32:40.921413 10215 layer_factory.hpp:77] Creating layer fire5/expand1x1
I0811 03:32:40.921419 10215 net.cpp:84] Creating Layer fire5/expand1x1
I0811 03:32:40.921422 10215 net.cpp:406] fire5/expand1x1 <- fire5/squeeze1x1_fire5/relu_squeeze1x1_0_split_0
I0811 03:32:40.921425 10215 net.cpp:380] fire5/expand1x1 -> fire5/expand1x1
I0811 03:32:40.921577 10215 net.cpp:122] Setting up fire5/expand1x1
I0811 03:32:40.921581 10215 net.cpp:129] Top shape: 32 128 28 28 (3211264)
I0811 03:32:40.921583 10215 net.cpp:137] Memory required for data: 742796800
I0811 03:32:40.921586 10215 layer_factory.hpp:77] Creating layer fire5/relu_expand1x1
I0811 03:32:40.921589 10215 net.cpp:84] Creating Layer fire5/relu_expand1x1
I0811 03:32:40.921591 10215 net.cpp:406] fire5/relu_expand1x1 <- fire5/expand1x1
I0811 03:32:40.921594 10215 net.cpp:367] fire5/relu_expand1x1 -> fire5/expand1x1 (in-place)
I0811 03:32:40.921597 10215 net.cpp:122] Setting up fire5/relu_expand1x1
I0811 03:32:40.921599 10215 net.cpp:129] Top shape: 32 128 28 28 (3211264)
I0811 03:32:40.921602 10215 net.cpp:137] Memory required for data: 755641856
I0811 03:32:40.921604 10215 layer_factory.hpp:77] Creating layer fire5/expand3x3
I0811 03:32:40.921608 10215 net.cpp:84] Creating Layer fire5/expand3x3
I0811 03:32:40.921610 10215 net.cpp:406] fire5/expand3x3 <- fire5/squeeze1x1_fire5/relu_squeeze1x1_0_split_1
I0811 03:32:40.921619 10215 net.cpp:380] fire5/expand3x3 -> fire5/expand3x3
I0811 03:32:40.921941 10215 net.cpp:122] Setting up fire5/expand3x3
I0811 03:32:40.921946 10215 net.cpp:129] Top shape: 32 128 28 28 (3211264)
I0811 03:32:40.921947 10215 net.cpp:137] Memory required for data: 768486912
I0811 03:32:40.921952 10215 layer_factory.hpp:77] Creating layer fire5/relu_expand3x3
I0811 03:32:40.921954 10215 net.cpp:84] Creating Layer fire5/relu_expand3x3
I0811 03:32:40.921957 10215 net.cpp:406] fire5/relu_expand3x3 <- fire5/expand3x3
I0811 03:32:40.921959 10215 net.cpp:367] fire5/relu_expand3x3 -> fire5/expand3x3 (in-place)
I0811 03:32:40.921962 10215 net.cpp:122] Setting up fire5/relu_expand3x3
I0811 03:32:40.921965 10215 net.cpp:129] Top shape: 32 128 28 28 (3211264)
I0811 03:32:40.921967 10215 net.cpp:137] Memory required for data: 781331968
I0811 03:32:40.921969 10215 layer_factory.hpp:77] Creating layer fire5/concat
I0811 03:32:40.921972 10215 net.cpp:84] Creating Layer fire5/concat
I0811 03:32:40.921974 10215 net.cpp:406] fire5/concat <- fire5/expand1x1
I0811 03:32:40.921977 10215 net.cpp:406] fire5/concat <- fire5/expand3x3
I0811 03:32:40.921979 10215 net.cpp:380] fire5/concat -> fire5/concat
I0811 03:32:40.921991 10215 net.cpp:122] Setting up fire5/concat
I0811 03:32:40.921995 10215 net.cpp:129] Top shape: 32 256 28 28 (6422528)
I0811 03:32:40.921996 10215 net.cpp:137] Memory required for data: 807022080
I0811 03:32:40.921999 10215 layer_factory.hpp:77] Creating layer pool5
I0811 03:32:40.922003 10215 net.cpp:84] Creating Layer pool5
I0811 03:32:40.922004 10215 net.cpp:406] pool5 <- fire5/concat
I0811 03:32:40.922008 10215 net.cpp:380] pool5 -> pool5
I0811 03:32:40.922027 10215 net.cpp:122] Setting up pool5
I0811 03:32:40.922031 10215 net.cpp:129] Top shape: 32 256 14 14 (1605632)
I0811 03:32:40.922034 10215 net.cpp:137] Memory required for data: 813444608
I0811 03:32:40.922034 10215 layer_factory.hpp:77] Creating layer fire6/squeeze1x1
I0811 03:32:40.922039 10215 net.cpp:84] Creating Layer fire6/squeeze1x1
I0811 03:32:40.922040 10215 net.cpp:406] fire6/squeeze1x1 <- pool5
I0811 03:32:40.922044 10215 net.cpp:380] fire6/squeeze1x1 -> fire6/squeeze1x1
I0811 03:32:40.922271 10215 net.cpp:122] Setting up fire6/squeeze1x1
I0811 03:32:40.922274 10215 net.cpp:129] Top shape: 32 48 14 14 (301056)
I0811 03:32:40.922276 10215 net.cpp:137] Memory required for data: 814648832
I0811 03:32:40.922281 10215 layer_factory.hpp:77] Creating layer fire6/relu_squeeze1x1
I0811 03:32:40.922283 10215 net.cpp:84] Creating Layer fire6/relu_squeeze1x1
I0811 03:32:40.922286 10215 net.cpp:406] fire6/relu_squeeze1x1 <- fire6/squeeze1x1
I0811 03:32:40.922288 10215 net.cpp:367] fire6/relu_squeeze1x1 -> fire6/squeeze1x1 (in-place)
I0811 03:32:40.922291 10215 net.cpp:122] Setting up fire6/relu_squeeze1x1
I0811 03:32:40.922294 10215 net.cpp:129] Top shape: 32 48 14 14 (301056)
I0811 03:32:40.922297 10215 net.cpp:137] Memory required for data: 815853056
I0811 03:32:40.922298 10215 layer_factory.hpp:77] Creating layer fire6/squeeze1x1_fire6/relu_squeeze1x1_0_split
I0811 03:32:40.922302 10215 net.cpp:84] Creating Layer fire6/squeeze1x1_fire6/relu_squeeze1x1_0_split
I0811 03:32:40.922303 10215 net.cpp:406] fire6/squeeze1x1_fire6/relu_squeeze1x1_0_split <- fire6/squeeze1x1
I0811 03:32:40.922307 10215 net.cpp:380] fire6/squeeze1x1_fire6/relu_squeeze1x1_0_split -> fire6/squeeze1x1_fire6/relu_squeeze1x1_0_split_0
I0811 03:32:40.922309 10215 net.cpp:380] fire6/squeeze1x1_fire6/relu_squeeze1x1_0_split -> fire6/squeeze1x1_fire6/relu_squeeze1x1_0_split_1
I0811 03:32:40.922339 10215 net.cpp:122] Setting up fire6/squeeze1x1_fire6/relu_squeeze1x1_0_split
I0811 03:32:40.922343 10215 net.cpp:129] Top shape: 32 48 14 14 (301056)
I0811 03:32:40.922346 10215 net.cpp:129] Top shape: 32 48 14 14 (301056)
I0811 03:32:40.922348 10215 net.cpp:137] Memory required for data: 818261504
I0811 03:32:40.922349 10215 layer_factory.hpp:77] Creating layer fire6/expand1x1
I0811 03:32:40.922354 10215 net.cpp:84] Creating Layer fire6/expand1x1
I0811 03:32:40.922356 10215 net.cpp:406] fire6/expand1x1 <- fire6/squeeze1x1_fire6/relu_squeeze1x1_0_split_0
I0811 03:32:40.922365 10215 net.cpp:380] fire6/expand1x1 -> fire6/expand1x1
I0811 03:32:40.922605 10215 net.cpp:122] Setting up fire6/expand1x1
I0811 03:32:40.922610 10215 net.cpp:129] Top shape: 32 192 14 14 (1204224)
I0811 03:32:40.922612 10215 net.cpp:137] Memory required for data: 823078400
I0811 03:32:40.922616 10215 layer_factory.hpp:77] Creating layer fire6/relu_expand1x1
I0811 03:32:40.922632 10215 net.cpp:84] Creating Layer fire6/relu_expand1x1
I0811 03:32:40.922634 10215 net.cpp:406] fire6/relu_expand1x1 <- fire6/expand1x1
I0811 03:32:40.922637 10215 net.cpp:367] fire6/relu_expand1x1 -> fire6/expand1x1 (in-place)
I0811 03:32:40.922641 10215 net.cpp:122] Setting up fire6/relu_expand1x1
I0811 03:32:40.922643 10215 net.cpp:129] Top shape: 32 192 14 14 (1204224)
I0811 03:32:40.922646 10215 net.cpp:137] Memory required for data: 827895296
I0811 03:32:40.922647 10215 layer_factory.hpp:77] Creating layer fire6/expand3x3
I0811 03:32:40.922652 10215 net.cpp:84] Creating Layer fire6/expand3x3
I0811 03:32:40.922653 10215 net.cpp:406] fire6/expand3x3 <- fire6/squeeze1x1_fire6/relu_squeeze1x1_0_split_1
I0811 03:32:40.922657 10215 net.cpp:380] fire6/expand3x3 -> fire6/expand3x3
I0811 03:32:40.923261 10215 net.cpp:122] Setting up fire6/expand3x3
I0811 03:32:40.923266 10215 net.cpp:129] Top shape: 32 192 14 14 (1204224)
I0811 03:32:40.923267 10215 net.cpp:137] Memory required for data: 832712192
I0811 03:32:40.923271 10215 layer_factory.hpp:77] Creating layer fire6/relu_expand3x3
I0811 03:32:40.923292 10215 net.cpp:84] Creating Layer fire6/relu_expand3x3
I0811 03:32:40.923295 10215 net.cpp:406] fire6/relu_expand3x3 <- fire6/expand3x3
I0811 03:32:40.923297 10215 net.cpp:367] fire6/relu_expand3x3 -> fire6/expand3x3 (in-place)
I0811 03:32:40.923301 10215 net.cpp:122] Setting up fire6/relu_expand3x3
I0811 03:32:40.923305 10215 net.cpp:129] Top shape: 32 192 14 14 (1204224)
I0811 03:32:40.923305 10215 net.cpp:137] Memory required for data: 837529088
I0811 03:32:40.923307 10215 layer_factory.hpp:77] Creating layer fire6/concat
I0811 03:32:40.923311 10215 net.cpp:84] Creating Layer fire6/concat
I0811 03:32:40.923313 10215 net.cpp:406] fire6/concat <- fire6/expand1x1
I0811 03:32:40.923316 10215 net.cpp:406] fire6/concat <- fire6/expand3x3
I0811 03:32:40.923318 10215 net.cpp:380] fire6/concat -> fire6/concat
I0811 03:32:40.923344 10215 net.cpp:122] Setting up fire6/concat
I0811 03:32:40.923347 10215 net.cpp:129] Top shape: 32 384 14 14 (2408448)
I0811 03:32:40.923349 10215 net.cpp:137] Memory required for data: 847162880
I0811 03:32:40.923352 10215 layer_factory.hpp:77] Creating layer fire7/squeeze1x1
I0811 03:32:40.923355 10215 net.cpp:84] Creating Layer fire7/squeeze1x1
I0811 03:32:40.923357 10215 net.cpp:406] fire7/squeeze1x1 <- fire6/concat
I0811 03:32:40.923360 10215 net.cpp:380] fire7/squeeze1x1 -> fire7/squeeze1x1
I0811 03:32:40.923596 10215 net.cpp:122] Setting up fire7/squeeze1x1
I0811 03:32:40.923600 10215 net.cpp:129] Top shape: 32 48 14 14 (301056)
I0811 03:32:40.923602 10215 net.cpp:137] Memory required for data: 848367104
I0811 03:32:40.923609 10215 layer_factory.hpp:77] Creating layer fire7/relu_squeeze1x1
I0811 03:32:40.923612 10215 net.cpp:84] Creating Layer fire7/relu_squeeze1x1
I0811 03:32:40.923614 10215 net.cpp:406] fire7/relu_squeeze1x1 <- fire7/squeeze1x1
I0811 03:32:40.923617 10215 net.cpp:367] fire7/relu_squeeze1x1 -> fire7/squeeze1x1 (in-place)
I0811 03:32:40.923621 10215 net.cpp:122] Setting up fire7/relu_squeeze1x1
I0811 03:32:40.923624 10215 net.cpp:129] Top shape: 32 48 14 14 (301056)
I0811 03:32:40.923625 10215 net.cpp:137] Memory required for data: 849571328
I0811 03:32:40.923627 10215 layer_factory.hpp:77] Creating layer fire7/squeeze1x1_fire7/relu_squeeze1x1_0_split
I0811 03:32:40.923630 10215 net.cpp:84] Creating Layer fire7/squeeze1x1_fire7/relu_squeeze1x1_0_split
I0811 03:32:40.923632 10215 net.cpp:406] fire7/squeeze1x1_fire7/relu_squeeze1x1_0_split <- fire7/squeeze1x1
I0811 03:32:40.923635 10215 net.cpp:380] fire7/squeeze1x1_fire7/relu_squeeze1x1_0_split -> fire7/squeeze1x1_fire7/relu_squeeze1x1_0_split_0
I0811 03:32:40.923645 10215 net.cpp:380] fire7/squeeze1x1_fire7/relu_squeeze1x1_0_split -> fire7/squeeze1x1_fire7/relu_squeeze1x1_0_split_1
I0811 03:32:40.923668 10215 net.cpp:122] Setting up fire7/squeeze1x1_fire7/relu_squeeze1x1_0_split
I0811 03:32:40.923671 10215 net.cpp:129] Top shape: 32 48 14 14 (301056)
I0811 03:32:40.923674 10215 net.cpp:129] Top shape: 32 48 14 14 (301056)
I0811 03:32:40.923676 10215 net.cpp:137] Memory required for data: 851979776
I0811 03:32:40.923678 10215 layer_factory.hpp:77] Creating layer fire7/expand1x1
I0811 03:32:40.923682 10215 net.cpp:84] Creating Layer fire7/expand1x1
I0811 03:32:40.923684 10215 net.cpp:406] fire7/expand1x1 <- fire7/squeeze1x1_fire7/relu_squeeze1x1_0_split_0
I0811 03:32:40.923687 10215 net.cpp:380] fire7/expand1x1 -> fire7/expand1x1
I0811 03:32:40.923868 10215 net.cpp:122] Setting up fire7/expand1x1
I0811 03:32:40.923872 10215 net.cpp:129] Top shape: 32 192 14 14 (1204224)
I0811 03:32:40.923874 10215 net.cpp:137] Memory required for data: 856796672
I0811 03:32:40.923878 10215 layer_factory.hpp:77] Creating layer fire7/relu_expand1x1
I0811 03:32:40.923882 10215 net.cpp:84] Creating Layer fire7/relu_expand1x1
I0811 03:32:40.923883 10215 net.cpp:406] fire7/relu_expand1x1 <- fire7/expand1x1
I0811 03:32:40.923885 10215 net.cpp:367] fire7/relu_expand1x1 -> fire7/expand1x1 (in-place)
I0811 03:32:40.923888 10215 net.cpp:122] Setting up fire7/relu_expand1x1
I0811 03:32:40.923892 10215 net.cpp:129] Top shape: 32 192 14 14 (1204224)
I0811 03:32:40.923893 10215 net.cpp:137] Memory required for data: 861613568
I0811 03:32:40.923895 10215 layer_factory.hpp:77] Creating layer fire7/expand3x3
I0811 03:32:40.923899 10215 net.cpp:84] Creating Layer fire7/expand3x3
I0811 03:32:40.923902 10215 net.cpp:406] fire7/expand3x3 <- fire7/squeeze1x1_fire7/relu_squeeze1x1_0_split_1
I0811 03:32:40.923904 10215 net.cpp:380] fire7/expand3x3 -> fire7/expand3x3
I0811 03:32:40.924469 10215 net.cpp:122] Setting up fire7/expand3x3
I0811 03:32:40.924473 10215 net.cpp:129] Top shape: 32 192 14 14 (1204224)
I0811 03:32:40.924474 10215 net.cpp:137] Memory required for data: 866430464
I0811 03:32:40.924479 10215 layer_factory.hpp:77] Creating layer fire7/relu_expand3x3
I0811 03:32:40.924481 10215 net.cpp:84] Creating Layer fire7/relu_expand3x3
I0811 03:32:40.924484 10215 net.cpp:406] fire7/relu_expand3x3 <- fire7/expand3x3
I0811 03:32:40.924486 10215 net.cpp:367] fire7/relu_expand3x3 -> fire7/expand3x3 (in-place)
I0811 03:32:40.924489 10215 net.cpp:122] Setting up fire7/relu_expand3x3
I0811 03:32:40.924492 10215 net.cpp:129] Top shape: 32 192 14 14 (1204224)
I0811 03:32:40.924494 10215 net.cpp:137] Memory required for data: 871247360
I0811 03:32:40.924496 10215 layer_factory.hpp:77] Creating layer fire7/concat
I0811 03:32:40.924499 10215 net.cpp:84] Creating Layer fire7/concat
I0811 03:32:40.924501 10215 net.cpp:406] fire7/concat <- fire7/expand1x1
I0811 03:32:40.924504 10215 net.cpp:406] fire7/concat <- fire7/expand3x3
I0811 03:32:40.924506 10215 net.cpp:380] fire7/concat -> fire7/concat
I0811 03:32:40.924518 10215 net.cpp:122] Setting up fire7/concat
I0811 03:32:40.924522 10215 net.cpp:129] Top shape: 32 384 14 14 (2408448)
I0811 03:32:40.924523 10215 net.cpp:137] Memory required for data: 880881152
I0811 03:32:40.924525 10215 layer_factory.hpp:77] Creating layer fire8/squeeze1x1
I0811 03:32:40.924530 10215 net.cpp:84] Creating Layer fire8/squeeze1x1
I0811 03:32:40.924531 10215 net.cpp:406] fire8/squeeze1x1 <- fire7/concat
I0811 03:32:40.924535 10215 net.cpp:380] fire8/squeeze1x1 -> fire8/squeeze1x1
I0811 03:32:40.924795 10215 net.cpp:122] Setting up fire8/squeeze1x1
I0811 03:32:40.924799 10215 net.cpp:129] Top shape: 32 64 14 14 (401408)
I0811 03:32:40.924801 10215 net.cpp:137] Memory required for data: 882486784
I0811 03:32:40.924804 10215 layer_factory.hpp:77] Creating layer fire8/relu_squeeze1x1
I0811 03:32:40.924808 10215 net.cpp:84] Creating Layer fire8/relu_squeeze1x1
I0811 03:32:40.924809 10215 net.cpp:406] fire8/relu_squeeze1x1 <- fire8/squeeze1x1
I0811 03:32:40.924818 10215 net.cpp:367] fire8/relu_squeeze1x1 -> fire8/squeeze1x1 (in-place)
I0811 03:32:40.924820 10215 net.cpp:122] Setting up fire8/relu_squeeze1x1
I0811 03:32:40.924823 10215 net.cpp:129] Top shape: 32 64 14 14 (401408)
I0811 03:32:40.924825 10215 net.cpp:137] Memory required for data: 884092416
I0811 03:32:40.924827 10215 layer_factory.hpp:77] Creating layer fire8/squeeze1x1_fire8/relu_squeeze1x1_0_split
I0811 03:32:40.924830 10215 net.cpp:84] Creating Layer fire8/squeeze1x1_fire8/relu_squeeze1x1_0_split
I0811 03:32:40.924831 10215 net.cpp:406] fire8/squeeze1x1_fire8/relu_squeeze1x1_0_split <- fire8/squeeze1x1
I0811 03:32:40.924834 10215 net.cpp:380] fire8/squeeze1x1_fire8/relu_squeeze1x1_0_split -> fire8/squeeze1x1_fire8/relu_squeeze1x1_0_split_0
I0811 03:32:40.924839 10215 net.cpp:380] fire8/squeeze1x1_fire8/relu_squeeze1x1_0_split -> fire8/squeeze1x1_fire8/relu_squeeze1x1_0_split_1
I0811 03:32:40.924860 10215 net.cpp:122] Setting up fire8/squeeze1x1_fire8/relu_squeeze1x1_0_split
I0811 03:32:40.924862 10215 net.cpp:129] Top shape: 32 64 14 14 (401408)
I0811 03:32:40.924865 10215 net.cpp:129] Top shape: 32 64 14 14 (401408)
I0811 03:32:40.924867 10215 net.cpp:137] Memory required for data: 887303680
I0811 03:32:40.924870 10215 layer_factory.hpp:77] Creating layer fire8/expand1x1
I0811 03:32:40.924872 10215 net.cpp:84] Creating Layer fire8/expand1x1
I0811 03:32:40.924875 10215 net.cpp:406] fire8/expand1x1 <- fire8/squeeze1x1_fire8/relu_squeeze1x1_0_split_0
I0811 03:32:40.924877 10215 net.cpp:380] fire8/expand1x1 -> fire8/expand1x1
I0811 03:32:40.925097 10215 net.cpp:122] Setting up fire8/expand1x1
I0811 03:32:40.925101 10215 net.cpp:129] Top shape: 32 256 14 14 (1605632)
I0811 03:32:40.925102 10215 net.cpp:137] Memory required for data: 893726208
I0811 03:32:40.925107 10215 layer_factory.hpp:77] Creating layer fire8/relu_expand1x1
I0811 03:32:40.925109 10215 net.cpp:84] Creating Layer fire8/relu_expand1x1
I0811 03:32:40.925112 10215 net.cpp:406] fire8/relu_expand1x1 <- fire8/expand1x1
I0811 03:32:40.925113 10215 net.cpp:367] fire8/relu_expand1x1 -> fire8/expand1x1 (in-place)
I0811 03:32:40.925117 10215 net.cpp:122] Setting up fire8/relu_expand1x1
I0811 03:32:40.925119 10215 net.cpp:129] Top shape: 32 256 14 14 (1605632)
I0811 03:32:40.925122 10215 net.cpp:137] Memory required for data: 900148736
I0811 03:32:40.925123 10215 layer_factory.hpp:77] Creating layer fire8/expand3x3
I0811 03:32:40.925127 10215 net.cpp:84] Creating Layer fire8/expand3x3
I0811 03:32:40.925129 10215 net.cpp:406] fire8/expand3x3 <- fire8/squeeze1x1_fire8/relu_squeeze1x1_0_split_1
I0811 03:32:40.925132 10215 net.cpp:380] fire8/expand3x3 -> fire8/expand3x3
I0811 03:32:40.926028 10215 net.cpp:122] Setting up fire8/expand3x3
I0811 03:32:40.926033 10215 net.cpp:129] Top shape: 32 256 14 14 (1605632)
I0811 03:32:40.926034 10215 net.cpp:137] Memory required for data: 906571264
I0811 03:32:40.926038 10215 layer_factory.hpp:77] Creating layer fire8/relu_expand3x3
I0811 03:32:40.926040 10215 net.cpp:84] Creating Layer fire8/relu_expand3x3
I0811 03:32:40.926043 10215 net.cpp:406] fire8/relu_expand3x3 <- fire8/expand3x3
I0811 03:32:40.926045 10215 net.cpp:367] fire8/relu_expand3x3 -> fire8/expand3x3 (in-place)
I0811 03:32:40.926048 10215 net.cpp:122] Setting up fire8/relu_expand3x3
I0811 03:32:40.926051 10215 net.cpp:129] Top shape: 32 256 14 14 (1605632)
I0811 03:32:40.926054 10215 net.cpp:137] Memory required for data: 912993792
I0811 03:32:40.926055 10215 layer_factory.hpp:77] Creating layer fire8/concat
I0811 03:32:40.926059 10215 net.cpp:84] Creating Layer fire8/concat
I0811 03:32:40.926060 10215 net.cpp:406] fire8/concat <- fire8/expand1x1
I0811 03:32:40.926062 10215 net.cpp:406] fire8/concat <- fire8/expand3x3
I0811 03:32:40.926065 10215 net.cpp:380] fire8/concat -> fire8/concat
I0811 03:32:40.926079 10215 net.cpp:122] Setting up fire8/concat
I0811 03:32:40.926082 10215 net.cpp:129] Top shape: 32 512 14 14 (3211264)
I0811 03:32:40.926084 10215 net.cpp:137] Memory required for data: 925838848
I0811 03:32:40.926091 10215 layer_factory.hpp:77] Creating layer fire9/squeeze1x1
I0811 03:32:40.926095 10215 net.cpp:84] Creating Layer fire9/squeeze1x1
I0811 03:32:40.926097 10215 net.cpp:406] fire9/squeeze1x1 <- fire8/concat
I0811 03:32:40.926100 10215 net.cpp:380] fire9/squeeze1x1 -> fire9/squeeze1x1
I0811 03:32:40.926404 10215 net.cpp:122] Setting up fire9/squeeze1x1
I0811 03:32:40.926409 10215 net.cpp:129] Top shape: 32 64 14 14 (401408)
I0811 03:32:40.926410 10215 net.cpp:137] Memory required for data: 927444480
I0811 03:32:40.926414 10215 layer_factory.hpp:77] Creating layer fire9/relu_squeeze1x1
I0811 03:32:40.926417 10215 net.cpp:84] Creating Layer fire9/relu_squeeze1x1
I0811 03:32:40.926419 10215 net.cpp:406] fire9/relu_squeeze1x1 <- fire9/squeeze1x1
I0811 03:32:40.926421 10215 net.cpp:367] fire9/relu_squeeze1x1 -> fire9/squeeze1x1 (in-place)
I0811 03:32:40.926424 10215 net.cpp:122] Setting up fire9/relu_squeeze1x1
I0811 03:32:40.926427 10215 net.cpp:129] Top shape: 32 64 14 14 (401408)
I0811 03:32:40.926429 10215 net.cpp:137] Memory required for data: 929050112
I0811 03:32:40.926431 10215 layer_factory.hpp:77] Creating layer fire9/squeeze1x1_fire9/relu_squeeze1x1_0_split
I0811 03:32:40.926437 10215 net.cpp:84] Creating Layer fire9/squeeze1x1_fire9/relu_squeeze1x1_0_split
I0811 03:32:40.926440 10215 net.cpp:406] fire9/squeeze1x1_fire9/relu_squeeze1x1_0_split <- fire9/squeeze1x1
I0811 03:32:40.926443 10215 net.cpp:380] fire9/squeeze1x1_fire9/relu_squeeze1x1_0_split -> fire9/squeeze1x1_fire9/relu_squeeze1x1_0_split_0
I0811 03:32:40.926446 10215 net.cpp:380] fire9/squeeze1x1_fire9/relu_squeeze1x1_0_split -> fire9/squeeze1x1_fire9/relu_squeeze1x1_0_split_1
I0811 03:32:40.926467 10215 net.cpp:122] Setting up fire9/squeeze1x1_fire9/relu_squeeze1x1_0_split
I0811 03:32:40.926470 10215 net.cpp:129] Top shape: 32 64 14 14 (401408)
I0811 03:32:40.926473 10215 net.cpp:129] Top shape: 32 64 14 14 (401408)
I0811 03:32:40.926476 10215 net.cpp:137] Memory required for data: 932261376
I0811 03:32:40.926477 10215 layer_factory.hpp:77] Creating layer fire9/expand1x1
I0811 03:32:40.926481 10215 net.cpp:84] Creating Layer fire9/expand1x1
I0811 03:32:40.926483 10215 net.cpp:406] fire9/expand1x1 <- fire9/squeeze1x1_fire9/relu_squeeze1x1_0_split_0
I0811 03:32:40.926486 10215 net.cpp:380] fire9/expand1x1 -> fire9/expand1x1
I0811 03:32:40.926708 10215 net.cpp:122] Setting up fire9/expand1x1
I0811 03:32:40.926713 10215 net.cpp:129] Top shape: 32 256 14 14 (1605632)
I0811 03:32:40.926715 10215 net.cpp:137] Memory required for data: 938683904
I0811 03:32:40.926719 10215 layer_factory.hpp:77] Creating layer fire9/relu_expand1x1
I0811 03:32:40.926723 10215 net.cpp:84] Creating Layer fire9/relu_expand1x1
I0811 03:32:40.926724 10215 net.cpp:406] fire9/relu_expand1x1 <- fire9/expand1x1
I0811 03:32:40.926728 10215 net.cpp:367] fire9/relu_expand1x1 -> fire9/expand1x1 (in-place)
I0811 03:32:40.926730 10215 net.cpp:122] Setting up fire9/relu_expand1x1
I0811 03:32:40.926733 10215 net.cpp:129] Top shape: 32 256 14 14 (1605632)
I0811 03:32:40.926734 10215 net.cpp:137] Memory required for data: 945106432
I0811 03:32:40.926736 10215 layer_factory.hpp:77] Creating layer fire9/expand3x3
I0811 03:32:40.926740 10215 net.cpp:84] Creating Layer fire9/expand3x3
I0811 03:32:40.926743 10215 net.cpp:406] fire9/expand3x3 <- fire9/squeeze1x1_fire9/relu_squeeze1x1_0_split_1
I0811 03:32:40.926746 10215 net.cpp:380] fire9/expand3x3 -> fire9/expand3x3
I0811 03:32:40.928270 10215 net.cpp:122] Setting up fire9/expand3x3
I0811 03:32:40.928278 10215 net.cpp:129] Top shape: 32 256 14 14 (1605632)
I0811 03:32:40.928280 10215 net.cpp:137] Memory required for data: 951528960
I0811 03:32:40.928284 10215 layer_factory.hpp:77] Creating layer fire9/relu_expand3x3
I0811 03:32:40.928288 10215 net.cpp:84] Creating Layer fire9/relu_expand3x3
I0811 03:32:40.928292 10215 net.cpp:406] fire9/relu_expand3x3 <- fire9/expand3x3
I0811 03:32:40.928294 10215 net.cpp:367] fire9/relu_expand3x3 -> fire9/expand3x3 (in-place)
I0811 03:32:40.928298 10215 net.cpp:122] Setting up fire9/relu_expand3x3
I0811 03:32:40.928310 10215 net.cpp:129] Top shape: 32 256 14 14 (1605632)
I0811 03:32:40.928313 10215 net.cpp:137] Memory required for data: 957951488
I0811 03:32:40.928314 10215 layer_factory.hpp:77] Creating layer fire9/concat
I0811 03:32:40.928318 10215 net.cpp:84] Creating Layer fire9/concat
I0811 03:32:40.928320 10215 net.cpp:406] fire9/concat <- fire9/expand1x1
I0811 03:32:40.928323 10215 net.cpp:406] fire9/concat <- fire9/expand3x3
I0811 03:32:40.928325 10215 net.cpp:380] fire9/concat -> fire9/concat
I0811 03:32:40.928342 10215 net.cpp:122] Setting up fire9/concat
I0811 03:32:40.928347 10215 net.cpp:129] Top shape: 32 512 14 14 (3211264)
I0811 03:32:40.928349 10215 net.cpp:137] Memory required for data: 970796544
I0811 03:32:40.928351 10215 layer_factory.hpp:77] Creating layer drop9
I0811 03:32:40.928355 10215 net.cpp:84] Creating Layer drop9
I0811 03:32:40.928357 10215 net.cpp:406] drop9 <- fire9/concat
I0811 03:32:40.928360 10215 net.cpp:367] drop9 -> fire9/concat (in-place)
I0811 03:32:40.928377 10215 net.cpp:122] Setting up drop9
I0811 03:32:40.928380 10215 net.cpp:129] Top shape: 32 512 14 14 (3211264)
I0811 03:32:40.928382 10215 net.cpp:137] Memory required for data: 983641600
I0811 03:32:40.928385 10215 layer_factory.hpp:77] Creating layer conv10
I0811 03:32:40.928388 10215 net.cpp:84] Creating Layer conv10
I0811 03:32:40.928390 10215 net.cpp:406] conv10 <- fire9/concat
I0811 03:32:40.928393 10215 net.cpp:380] conv10 -> conv10
I0811 03:32:40.941687 10215 net.cpp:122] Setting up conv10
I0811 03:32:40.941704 10215 net.cpp:129] Top shape: 32 1000 14 14 (6272000)
I0811 03:32:40.941707 10215 net.cpp:137] Memory required for data: 1008729600
I0811 03:32:40.941712 10215 layer_factory.hpp:77] Creating layer relu_conv10
I0811 03:32:40.941720 10215 net.cpp:84] Creating Layer relu_conv10
I0811 03:32:40.941721 10215 net.cpp:406] relu_conv10 <- conv10
I0811 03:32:40.941725 10215 net.cpp:367] relu_conv10 -> conv10 (in-place)
I0811 03:32:40.941731 10215 net.cpp:122] Setting up relu_conv10
I0811 03:32:40.941735 10215 net.cpp:129] Top shape: 32 1000 14 14 (6272000)
I0811 03:32:40.941736 10215 net.cpp:137] Memory required for data: 1033817600
I0811 03:32:40.941737 10215 layer_factory.hpp:77] Creating layer pool10
I0811 03:32:40.941741 10215 net.cpp:84] Creating Layer pool10
I0811 03:32:40.941743 10215 net.cpp:406] pool10 <- conv10
I0811 03:32:40.941747 10215 net.cpp:380] pool10 -> pool10
I0811 03:32:40.941769 10215 net.cpp:122] Setting up pool10
I0811 03:32:40.941772 10215 net.cpp:129] Top shape: 32 1000 1 1 (32000)
I0811 03:32:40.941774 10215 net.cpp:137] Memory required for data: 1033945600
I0811 03:32:40.941776 10215 layer_factory.hpp:77] Creating layer loss
I0811 03:32:40.941787 10215 net.cpp:84] Creating Layer loss
I0811 03:32:40.941788 10215 net.cpp:406] loss <- pool10
I0811 03:32:40.941790 10215 net.cpp:406] loss <- label
I0811 03:32:40.941795 10215 net.cpp:380] loss -> loss
I0811 03:32:40.941807 10215 layer_factory.hpp:77] Creating layer loss
…
I0811 03:32:40.942869 10215 solver.cpp:190] Creating test net (#0) specified by net file: train_val.prototxt
I0811 03:32:40.942915 10215 net.cpp:294] The NetState phase (1) differed from the phase (0) specified by a rule in layer train-data
I0811 03:32:40.943087 10215 net.cpp:51] Initializing net from parameters:
state {
phase: TEST
}
layer {
name: "val-data"
type: "Data"
top: "data"
top: "label"
include {
phase: TEST
}
transform_param {
crop_size: 227
mean_file: "/home/fei/DIGITS/digits/jobs/20180810-200238-65f4/mean.binaryproto"
}
data_param {
source: "/home/fei/DIGITS/digits/jobs/20180810-200238-65f4/val_db"
batch_size: 25
backend: LMDB
}
}
layer {
name: "conv1"
type: "Convolution"
bottom: "data"
top: "conv1"
convolution_param {
num_output: 64
kernel_size: 3
stride: 2
weight_filler {
type: "xavier"
}
}
}
layer {
name: "relu_conv1"
type: "ReLU"
bottom: "conv1"
top: "conv1"
}
layer {
name: "pool1"
type: "Pooling"
bottom: "conv1"
top: "pool1"
pooling_param {
pool: MAX
kernel_size: 3
stride: 2
}
}
layer {
name: "fire2/squeeze1x1"
type: "Convolution"
bottom: "pool1"
top: "fire2/squeeze1x1"
convolution_param {
num_output: 16
kernel_size: 1
weight_filler {
type: "xavier"
}
}
}
layer {
name: "fire2/relu_squeeze1x1"
type: "ReLU"
bottom: "fire2/squeeze1x1"
top: "fire2/squeeze1x1"
}
layer {
name: "fire2/expand1x1"
type: "Convolution"
bottom: "fire2/squeeze1x1"
top: "fire2/expand1x1"
convolution_param {
num_output: 64
kernel_size: 1
weight_filler {
type: "xavier"
}
}
}
layer {
name: "fire2/relu_expand1x1"
type: "ReLU"
bottom: "fire2/expand1x1"
top: "fire2/expand1x1"
}
layer {
name: "fire2/expand3x3"
type: "Convolution"
bottom: "fire2/squeeze1x1"
top: "fire2/expand3x3"
convolution_param {
num_output: 64
pad: 1
kernel_size: 3
weight_filler {
type: "xavier"
}
}
}
layer {
name: "fire2/relu_expand3x3"
type: "ReLU"
bottom: "fire2/expand3x3"
top: "fire2/expand3x3"
}
layer {
name: "fire2/concat"
type: "Concat"
bottom: "fire2/expand1x1"
bottom: "fire2/expand3x3"
top: "fire2/concat"
}
layer {
name: "fire3/squeeze1x1"
type: "Convolution"
bottom: "fire2/concat"
top: "fire3/squeeze1x1"
convolution_param {
num_output: 16
kernel_size: 1
weight_filler {
type: "xavier"
}
}
}
layer {
name: "fire3/relu_squeeze1x1"
type: "ReLU"
bottom: "fire3/squeeze1x1"
top: "fire3/squeeze1x1"
}
layer {
name: "fire3/expand1x1"
type: "Convolution"
bottom: "fire3/squeeze1x1"
top: "fire3/expand1x1"
convolution_param {
num_output: 64
kernel_size: 1
weight_filler {
type: "xavier"
}
}
}
layer {
name: "fire3/relu_expand1x1"
type: "ReLU"
bottom: "fire3/expand1x1"
top: "fire3/expand1x1"
}
layer {
name: "fire3/expand3x3"
type: "Convolution"
bottom: "fire3/squeeze1x1"
top: "fire3/expand3x3"
convolution_param {
num_output: 64
pad: 1
kernel_size: 3
weight_filler {
type: "xavier"
}
}
}
layer {
name: "fire3/relu_expand3x3"
type: "ReLU"
bottom: "fire3/expand3x3"
top: "fire3/expand3x3"
}
layer {
name: "fire3/concat"
type: "Concat"
bottom: "fire3/expand1x1"
bottom: "fire3/expand3x3"
top: "fire3/concat"
}
layer {
name: "pool3"
type: "Pooling"
bottom: "fire3/concat"
top: "pool3"
pooling_param {
pool: MAX
kernel_size: 3
stride: 2
}
}
layer {
name: "fire4/squeeze1x1"
type: "Convolution"
bottom: "pool3"
top: "fire4/squeeze1x1"
convolution_param {
num_output: 32
kernel_size: 1
weight_filler {
type: "xavier"
}
}
}
layer {
name: "fire4/relu_squeeze1x1"
type: "ReLU"
bottom: "fire4/squeeze1x1"
top: "fire4/squeeze1x1"
}
layer {
name: "fire4/expand1x1"
type: "Convolution"
bottom: "fire4/squeeze1x1"
top: "fire4/expand1x1"
convolution_param {
num_output: 128
kernel_size: 1
weight_filler {
type: "xavier"
}
}
}
layer {
name: "fire4/relu_expand1x1"
type: "ReLU"
bottom: "fire4/expand1x1"
top: "fire4/expand1x1"
}
layer {
name: "fire4/expand3x3"
type: "Convolution"
bottom: "fire4/squeeze1x1"
top: "fire4/expand3x3"
convolution_param {
num_output: 128
pad: 1
kernel_size: 3
weight_filler {
type: "xavier"
}
}
}
layer {
name: "fire4/relu_expand3x3"
type: "ReLU"
bottom: "fire4/expand3x3"
top: "fire4/expand3x3"
}
layer {
name: "fire4/concat"
type: "Concat"
bottom: "fire4/expand1x1"
bottom: "fire4/expand3x3"
top: "fire4/concat"
}
layer {
name: "fire5/squeeze1x1"
type: "Convolution"
bottom: "fire4/concat"
top: "fire5/squeeze1x1"
convolution_param {
num_output: 32
kernel_size: 1
weight_filler {
type: "xavier"
}
}
}
layer {
name: "fire5/relu_squeeze1x1"
type: "ReLU"
bottom: "fire5/squeeze1x1"
top: "fire5/squeeze1x1"
}
layer {
name: "fire5/expand1x1"
type: "Convolution"
bottom: "fire5/squeeze1x1"
top: "fire5/expand1x1"
convolution_param {
num_output: 128
kernel_size: 1
weight_filler {
type: "xavier"
}
}
}
layer {
name: "fire5/relu_expand1x1"
type: "ReLU"
bottom: "fire5/expand1x1"
top: "fire5/expand1x1"
}
layer {
name: "fire5/expand3x3"
type: "Convolution"
bottom: "fire5/squeeze1x1"
top: "fire5/expand3x3"
convolution_param {
num_output: 128
pad: 1
kernel_size: 3
weight_filler {
type: "xavier"
}
}
}
layer {
name: "fire5/relu_expand3x3"
type: "ReLU"
bottom: "fire5/expand3x3"
top: "fire5/expand3x3"
}
layer {
name: "fire5/concat"
type: "Concat"
bottom: "fire5/expand1x1"
bottom: "fire5/expand3x3"
top: "fire5/concat"
}
layer {
name: "pool5"
type: "Pooling"
bottom: "fire5/concat"
top: "pool5"
pooling_param {
pool: MAX
kernel_size: 3
stride: 2
}
}
layer {
name: "fire6/squeeze1x1"
type: "Convolution"
bottom: "pool5"
top: "fire6/squeeze1x1"
convolution_param {
num_output: 48
kernel_size: 1
weight_filler {
type: "xavier"
}
}
}
layer {
name: "fire6/relu_squeeze1x1"
type: "ReLU"
bottom: "fire6/squeeze1x1"
top: "fire6/squeeze1x1"
}
layer {
name: "fire6/expand1x1"
type: "Convolution"
bottom: "fire6/squeeze1x1"
top: "fire6/expand1x1"
convolution_param {
num_output: 192
kernel_size: 1
weight_filler {
type: "xavier"
}
}
}
layer {
name: "fire6/relu_expand1x1"
type: "ReLU"
bottom: "fire6/expand1x1"
top: "fire6/expand1x1"
}
layer {
name: "fire6/expand3x3"
type: "Convolution"
bottom: "fire6/squeeze1x1"
top: "fire6/expand3x3"
convolution_param {
num_output: 192
pad: 1
kernel_size: 3
weight_filler {
type: "xavier"
}
}
}
layer {
name: "fire6/relu_expand3x3"
type: "ReLU"
bottom: "fire6/expand3x3"
top: "fire6/expand3x3"
}
layer {
name: "fire6/concat"
type: "Concat"
bottom: "fire6/expand1x1"
bottom: "fire6/expand3x3"
top: "fire6/concat"
}
layer {
name: "fire7/squeeze1x1"
type: "Convolution"
bottom: "fire6/concat"
top: "fire7/squeeze1x1"
convolution_param {
num_output: 48
kernel_size: 1
weight_filler {
type: "xavier"
}
}
}
layer {
name: "fire7/relu_squeeze1x1"
type: "ReLU"
bottom: "fire7/squeeze1x1"
top: "fire7/squeeze1x1"
}
layer {
name: "fire7/expand1x1"
type: "Convolution"
bottom: "fire7/squeeze1x1"
top: "fire7/expand1x1"
convolution_param {
num_output: 192
kernel_size: 1
weight_filler {
type: "xavier"
}
}
}
layer {
name: "fire7/relu_expand1x1"
type: "ReLU"
bottom: "fire7/expand1x1"
top: "fire7/expand1x1"
}
layer {
name: "fire7/expand3x3"
type: "Convolution"
bottom: "fire7/squeeze1x1"
top: "fire7/expand3x3"
convolution_param {
num_output: 192
pad: 1
kernel_size: 3
weight_filler {
type: "xavier"
}
}
}
layer {
name: "fire7/relu_expand3x3"
type: "ReLU"
bottom: "fire7/expand3x3"
top: "fire7/expand3x3"
}
layer {
name: "fire7/concat"
type: "Concat"
bottom: "fire7/expand1x1"
bottom: "fire7/expand3x3"
top: "fire7/concat"
}
layer {
name: "fire8/squeeze1x1"
type: "Convolution"
bottom: "fire7/concat"
top: "fire8/squeeze1x1"
convolution_param {
num_output: 64
kernel_size: 1
weight_filler {
type: "xavier"
}
}
}
layer {
name: "fire8/relu_squeeze1x1"
type: "ReLU"
bottom: "fire8/squeeze1x1"
top: "fire8/squeeze1x1"
}
layer {
name: "fire8/expand1x1"
type: "Convolution"
bottom: "fire8/squeeze1x1"
top: "fire8/expand1x1"
convolution_param {
num_output: 256
kernel_size: 1
weight_filler {
type: "xavier"
}
}
}
layer {
name: "fire8/relu_expand1x1"
type: "ReLU"
bottom: "fire8/expand1x1"
top: "fire8/expand1x1"
}
layer {
name: "fire8/expand3x3"
type: "Convolution"
bottom: "fire8/squeeze1x1"
top: "fire8/expand3x3"
convolution_param {
num_output: 256
pad: 1
kernel_size: 3
weight_filler {
type: "xavier"
}
}
}
layer {
name: "fire8/relu_expand3x3"
type: "ReLU"
bottom: "fire8/expand3x3"
top: "fire8/expand3x3"
}
layer {
name: "fire8/concat"
type: "Concat"
bottom: "fire8/expand1x1"
bottom: "fire8/expand3x3"
top: "fire8/concat"
}
layer {
name: "fire9/squeeze1x1"
type: "Convolution"
bottom: "fire8/concat"
top: "fire9/squeeze1x1"
convolution_param {
num_output: 64
kernel_size: 1
weight_filler {
type: "xavier"
}
}
}
layer {
name: "fire9/relu_squeeze1x1"
type: "ReLU"
bottom: "fire9/squeeze1x1"
top: "fire9/squeeze1x1"
}
layer {
name: "fire9/expand1x1"
type: "Convolution"
bottom: "fire9/squeeze1x1"
top: "fire9/expand1x1"
convolution_param {
num_output: 256
kernel_size: 1
weight_filler {
type: "xavier"
}
}
}
layer {
name: "fire9/relu_expand1x1"
type: "ReLU"
bottom: "fire9/expand1x1"
top: "fire9/expand1x1"
}
layer {
name: "fire9/expand3x3"
type: "Convolution"
bottom: "fire9/squeeze1x1"
top: "fire9/expand3x3"
convolution_param {
num_output: 256
pad: 1
kernel_size: 3
weight_filler {
type: "xavier"
}
}
}
layer {
name: "fire9/relu_expand3x3"
type: "ReLU"
bottom: "fire9/expand3x3"
top: "fire9/expand3x3"
}
layer {
name: "fire9/concat"
type: "Concat"
bottom: "fire9/expand1x1"
bottom: "fire9/expand3x3"
top: "fire9/concat"
}
layer {
name: "drop9"
type: "Dropout"
bottom: "fire9/concat"
top: "fire9/concat"
dropout_param {
dropout_ratio: 0.5
}
}
layer {
name: "conv10"
type: "Convolution"
bottom: "fire9/concat"
top: "conv10"
convolution_param {
num_output: 1000
kernel_size: 1
weight_filler {
type: "gaussian"
mean: 0
std: 0.01
}
}
}
layer {
name: "relu_conv10"
type: "ReLU"
bottom: "conv10"
top: "conv10"
}
layer {
name: "pool10"
type: "Pooling"
bottom: "conv10"
top: "pool10"
pooling_param {
pool: AVE
global_pooling: true
}
}
layer {
name: "accuracy"
type: "Accuracy"
bottom: "pool10"
bottom: "label"
top: "accuracy"
include {
phase: TEST
}
}
layer {
name: "loss"
type: "SoftmaxWithLoss"
bottom: "pool10"
bottom: "label"
top: "loss"
}
I0811 03:32:40.943269 10215 layer_factory.hpp:77] Creating layer val-data
I0811 03:32:40.943310 10215 db_lmdb.cpp:35] Opened lmdb /home/fei/DIGITS/digits/jobs/20180810-200238-65f4/val_db
I0811 03:32:40.943323 10215 net.cpp:84] Creating Layer val-data
I0811 03:32:40.943327 10215 net.cpp:380] val-data -> data
I0811 03:32:40.943332 10215 net.cpp:380] val-data -> label
I0811 03:32:40.943337 10215 data_transformer.cpp:25] Loading mean file from: /home/fei/DIGITS/digits/jobs/20180810-200238-65f4/mean.binaryproto
I0811 03:32:40.946209 10215 data_layer.cpp:45] output data size: 25,3,227,227
I0811 03:32:40.970244 10215 net.cpp:122] Setting up val-data
I0811 03:32:40.970261 10215 net.cpp:129] Top shape: 25 3 227 227 (3864675)
I0811 03:32:40.970265 10215 net.cpp:129] Top shape: 25 (25)
I0811 03:32:40.970268 10215 net.cpp:137] Memory required for data: 15458800
I0811 03:32:40.970271 10215 layer_factory.hpp:77] Creating layer label_val-data_1_split
I0811 03:32:40.970280 10215 net.cpp:84] Creating Layer label_val-data_1_split
I0811 03:32:40.970283 10215 net.cpp:406] label_val-data_1_split <- label
I0811 03:32:40.970288 10215 net.cpp:380] label_val-data_1_split -> label_val-data_1_split_0
I0811 03:32:40.970293 10215 net.cpp:380] label_val-data_1_split -> label_val-data_1_split_1
I0811 03:32:40.970335 10215 net.cpp:122] Setting up label_val-data_1_split
I0811 03:32:40.970340 10215 net.cpp:129] Top shape: 25 (25)
I0811 03:32:40.970342 10215 net.cpp:129] Top shape: 25 (25)
I0811 03:32:40.970345 10215 net.cpp:137] Memory required for data: 15459000
I0811 03:32:40.970346 10215 layer_factory.hpp:77] Creating layer conv1
I0811 03:32:40.970353 10215 net.cpp:84] Creating Layer conv1
I0811 03:32:40.970355 10215 net.cpp:406] conv1 <- data
I0811 03:32:40.970360 10215 net.cpp:380] conv1 -> conv1
I0811 03:32:40.970546 10215 net.cpp:122] Setting up conv1
I0811 03:32:40.970562 10215 net.cpp:129] Top shape: 25 64 113 113 (20430400)
I0811 03:32:40.970566 10215 net.cpp:137] Memory required for data: 97180600
I0811 03:32:40.970572 10215 layer_factory.hpp:77] Creating layer relu_conv1
I0811 03:32:40.970577 10215 net.cpp:84] Creating Layer relu_conv1
I0811 03:32:40.970579 10215 net.cpp:406] relu_conv1 <- conv1
I0811 03:32:40.970582 10215 net.cpp:367] relu_conv1 -> conv1 (in-place)
I0811 03:32:40.970587 10215 net.cpp:122] Setting up relu_conv1
I0811 03:32:40.970589 10215 net.cpp:129] Top shape: 25 64 113 113 (20430400)
I0811 03:32:40.970592 10215 net.cpp:137] Memory required for data: 178902200
I0811 03:32:40.970593 10215 layer_factory.hpp:77] Creating layer pool1
I0811 03:32:40.970597 10215 net.cpp:84] Creating Layer pool1
I0811 03:32:40.970599 10215 net.cpp:406] pool1 <- conv1
I0811 03:32:40.970602 10215 net.cpp:380] pool1 -> pool1
I0811 03:32:40.970628 10215 net.cpp:122] Setting up pool1
I0811 03:32:40.970630 10215 net.cpp:129] Top shape: 25 64 56 56 (5017600)
I0811 03:32:40.970633 10215 net.cpp:137] Memory required for data: 198972600
I0811 03:32:40.970634 10215 layer_factory.hpp:77] Creating layer fire2/squeeze1x1
I0811 03:32:40.970639 10215 net.cpp:84] Creating Layer fire2/squeeze1x1
I0811 03:32:40.970641 10215 net.cpp:406] fire2/squeeze1x1 <- pool1
I0811 03:32:40.970656 10215 net.cpp:380] fire2/squeeze1x1 -> fire2/squeeze1x1
I0811 03:32:40.970819 10215 net.cpp:122] Setting up fire2/squeeze1x1
I0811 03:32:40.970824 10215 net.cpp:129] Top shape: 25 16 56 56 (1254400)
I0811 03:32:40.970826 10215 net.cpp:137] Memory required for data: 203990200
I0811 03:32:40.970831 10215 layer_factory.hpp:77] Creating layer fire2/relu_squeeze1x1
I0811 03:32:40.970835 10215 net.cpp:84] Creating Layer fire2/relu_squeeze1x1
I0811 03:32:40.970837 10215 net.cpp:406] fire2/relu_squeeze1x1 <- fire2/squeeze1x1
I0811 03:32:40.970840 10215 net.cpp:367] fire2/relu_squeeze1x1 -> fire2/squeeze1x1 (in-place)
I0811 03:32:40.970844 10215 net.cpp:122] Setting up fire2/relu_squeeze1x1
I0811 03:32:40.970846 10215 net.cpp:129] Top shape: 25 16 56 56 (1254400)
I0811 03:32:40.970849 10215 net.cpp:137] Memory required for data: 209007800
I0811 03:32:40.970850 10215 layer_factory.hpp:77] Creating layer fire2/squeeze1x1_fire2/relu_squeeze1x1_0_split
I0811 03:32:40.970854 10215 net.cpp:84] Creating Layer fire2/squeeze1x1_fire2/relu_squeeze1x1_0_split
I0811 03:32:40.970855 10215 net.cpp:406] fire2/squeeze1x1_fire2/relu_squeeze1x1_0_split <- fire2/squeeze1x1
I0811 03:32:40.970858 10215 net.cpp:380] fire2/squeeze1x1_fire2/relu_squeeze1x1_0_split -> fire2/squeeze1x1_fire2/relu_squeeze1x1_0_split_0
I0811 03:32:40.970862 10215 net.cpp:380] fire2/squeeze1x1_fire2/relu_squeeze1x1_0_split -> fire2/squeeze1x1_fire2/relu_squeeze1x1_0_split_1
I0811 03:32:40.970888 10215 net.cpp:122] Setting up fire2/squeeze1x1_fire2/relu_squeeze1x1_0_split
I0811 03:32:40.970892 10215 net.cpp:129] Top shape: 25 16 56 56 (1254400)
I0811 03:32:40.970896 10215 net.cpp:129] Top shape: 25 16 56 56 (1254400)
I0811 03:32:40.970897 10215 net.cpp:137] Memory required for data: 219043000
I0811 03:32:40.970899 10215 layer_factory.hpp:77] Creating layer fire2/expand1x1
I0811 03:32:40.970906 10215 net.cpp:84] Creating Layer fire2/expand1x1
I0811 03:32:40.970907 10215 net.cpp:406] fire2/expand1x1 <- fire2/squeeze1x1_fire2/relu_squeeze1x1_0_split_0
I0811 03:32:40.970911 10215 net.cpp:380] fire2/expand1x1 -> fire2/expand1x1
I0811 03:32:40.971153 10215 net.cpp:122] Setting up fire2/expand1x1
I0811 03:32:40.971161 10215 net.cpp:129] Top shape: 25 64 56 56 (5017600)
I0811 03:32:40.971164 10215 net.cpp:137] Memory required for data: 239113400
I0811 03:32:40.971170 10215 layer_factory.hpp:77] Creating layer fire2/relu_expand1x1
I0811 03:32:40.971175 10215 net.cpp:84] Creating Layer fire2/relu_expand1x1
I0811 03:32:40.971179 10215 net.cpp:406] fire2/relu_expand1x1 <- fire2/expand1x1
I0811 03:32:40.971181 10215 net.cpp:367] fire2/relu_expand1x1 -> fire2/expand1x1 (in-place)
I0811 03:32:40.971186 10215 net.cpp:122] Setting up fire2/relu_expand1x1
I0811 03:32:40.971189 10215 net.cpp:129] Top shape: 25 64 56 56 (5017600)
I0811 03:32:40.971191 10215 net.cpp:137] Memory required for data: 259183800
I0811 03:32:40.971194 10215 layer_factory.hpp:77] Creating layer fire2/expand3x3
I0811 03:32:40.971199 10215 net.cpp:84] Creating Layer fire2/expand3x3
I0811 03:32:40.971200 10215 net.cpp:406] fire2/expand3x3 <- fire2/squeeze1x1_fire2/relu_squeeze1x1_0_split_1
I0811 03:32:40.971204 10215 net.cpp:380] fire2/expand3x3 -> fire2/expand3x3
I0811 03:32:40.971412 10215 net.cpp:122] Setting up fire2/expand3x3
I0811 03:32:40.971416 10215 net.cpp:129] Top shape: 25 64 56 56 (5017600)
I0811 03:32:40.971418 10215 net.cpp:137] Memory required for data: 279254200
I0811 03:32:40.971422 10215 layer_factory.hpp:77] Creating layer fire2/relu_expand3x3
I0811 03:32:40.971426 10215 net.cpp:84] Creating Layer fire2/relu_expand3x3
I0811 03:32:40.971428 10215 net.cpp:406] fire2/relu_expand3x3 <- fire2/expand3x3
I0811 03:32:40.971431 10215 net.cpp:367] fire2/relu_expand3x3 -> fire2/expand3x3 (in-place)
I0811 03:32:40.971434 10215 net.cpp:122] Setting up fire2/relu_expand3x3
I0811 03:32:40.971437 10215 net.cpp:129] Top shape: 25 64 56 56 (5017600)
I0811 03:32:40.971439 10215 net.cpp:137] Memory required for data: 299324600
I0811 03:32:40.971441 10215 layer_factory.hpp:77] Creating layer fire2/concat
I0811 03:32:40.971454 10215 net.cpp:84] Creating Layer fire2/concat
I0811 03:32:40.971457 10215 net.cpp:406] fire2/concat <- fire2/expand1x1
I0811 03:32:40.971459 10215 net.cpp:406] fire2/concat <- fire2/expand3x3
I0811 03:32:40.971462 10215 net.cpp:380] fire2/concat -> fire2/concat
I0811 03:32:40.971478 10215 net.cpp:122] Setting up fire2/concat
I0811 03:32:40.971482 10215 net.cpp:129] Top shape: 25 128 56 56 (10035200)
I0811 03:32:40.971483 10215 net.cpp:137] Memory required for data: 339465400
I0811 03:32:40.971487 10215 layer_factory.hpp:77] Creating layer fire3/squeeze1x1
I0811 03:32:40.971491 10215 net.cpp:84] Creating Layer fire3/squeeze1x1
I0811 03:32:40.971493 10215 net.cpp:406] fire3/squeeze1x1 <- fire2/concat
I0811 03:32:40.971496 10215 net.cpp:380] fire3/squeeze1x1 -> fire3/squeeze1x1
I0811 03:32:40.971658 10215 net.cpp:122] Setting up fire3/squeeze1x1
I0811 03:32:40.971663 10215 net.cpp:129] Top shape: 25 16 56 56 (1254400)
I0811 03:32:40.971665 10215 net.cpp:137] Memory required for data: 344483000
I0811 03:32:40.971670 10215 layer_factory.hpp:77] Creating layer fire3/relu_squeeze1x1
I0811 03:32:40.971673 10215 net.cpp:84] Creating Layer fire3/relu_squeeze1x1
I0811 03:32:40.971676 10215 net.cpp:406] fire3/relu_squeeze1x1 <- fire3/squeeze1x1
I0811 03:32:40.971679 10215 net.cpp:367] fire3/relu_squeeze1x1 -> fire3/squeeze1x1 (in-place)
I0811 03:32:40.971683 10215 net.cpp:122] Setting up fire3/relu_squeeze1x1
I0811 03:32:40.971685 10215 net.cpp:129] Top shape: 25 16 56 56 (1254400)
I0811 03:32:40.971688 10215 net.cpp:137] Memory required for data: 349500600
I0811 03:32:40.971689 10215 layer_factory.hpp:77] Creating layer fire3/squeeze1x1_fire3/relu_squeeze1x1_0_split
I0811 03:32:40.971693 10215 net.cpp:84] Creating Layer fire3/squeeze1x1_fire3/relu_squeeze1x1_0_split
I0811 03:32:40.971695 10215 net.cpp:406] fire3/squeeze1x1_fire3/relu_squeeze1x1_0_split <- fire3/squeeze1x1
I0811 03:32:40.971698 10215 net.cpp:380] fire3/squeeze1x1_fire3/relu_squeeze1x1_0_split -> fire3/squeeze1x1_fire3/relu_squeeze1x1_0_split_0
I0811 03:32:40.971702 10215 net.cpp:380] fire3/squeeze1x1_fire3/relu_squeeze1x1_0_split -> fire3/squeeze1x1_fire3/relu_squeeze1x1_0_split_1
I0811 03:32:40.971724 10215 net.cpp:122] Setting up fire3/squeeze1x1_fire3/relu_squeeze1x1_0_split
I0811 03:32:40.971727 10215 net.cpp:129] Top shape: 25 16 56 56 (1254400)
I0811 03:32:40.971730 10215 net.cpp:129] Top shape: 25 16 56 56 (1254400)
I0811 03:32:40.971732 10215 net.cpp:137] Memory required for data: 359535800
I0811 03:32:40.971735 10215 layer_factory.hpp:77] Creating layer fire3/expand1x1
I0811 03:32:40.971740 10215 net.cpp:84] Creating Layer fire3/expand1x1
I0811 03:32:40.971741 10215 net.cpp:406] fire3/expand1x1 <- fire3/squeeze1x1_fire3/relu_squeeze1x1_0_split_0
I0811 03:32:40.971745 10215 net.cpp:380] fire3/expand1x1 -> fire3/expand1x1
I0811 03:32:40.971896 10215 net.cpp:122] Setting up fire3/expand1x1
I0811 03:32:40.971899 10215 net.cpp:129] Top shape: 25 64 56 56 (5017600)
I0811 03:32:40.971901 10215 net.cpp:137] Memory required for data: 379606200
I0811 03:32:40.971905 10215 layer_factory.hpp:77] Creating layer fire3/relu_expand1x1
I0811 03:32:40.971909 10215 net.cpp:84] Creating Layer fire3/relu_expand1x1
I0811 03:32:40.971910 10215 net.cpp:406] fire3/relu_expand1x1 <- fire3/expand1x1
I0811 03:32:40.971913 10215 net.cpp:367] fire3/relu_expand1x1 -> fire3/expand1x1 (in-place)
I0811 03:32:40.971917 10215 net.cpp:122] Setting up fire3/relu_expand1x1
I0811 03:32:40.971920 10215 net.cpp:129] Top shape: 25 64 56 56 (5017600)
I0811 03:32:40.971921 10215 net.cpp:137] Memory required for data: 399676600
I0811 03:32:40.971923 10215 layer_factory.hpp:77] Creating layer fire3/expand3x3
I0811 03:32:40.971928 10215 net.cpp:84] Creating Layer fire3/expand3x3
I0811 03:32:40.971930 10215 net.cpp:406] fire3/expand3x3 <- fire3/squeeze1x1_fire3/relu_squeeze1x1_0_split_1
I0811 03:32:40.971935 10215 net.cpp:380] fire3/expand3x3 -> fire3/expand3x3
I0811 03:32:40.972129 10215 net.cpp:122] Setting up fire3/expand3x3
I0811 03:32:40.972133 10215 net.cpp:129] Top shape: 25 64 56 56 (5017600)
I0811 03:32:40.972141 10215 net.cpp:137] Memory required for data: 419747000
I0811 03:32:40.972146 10215 layer_factory.hpp:77] Creating layer fire3/relu_expand3x3
I0811 03:32:40.972148 10215 net.cpp:84] Creating Layer fire3/relu_expand3x3
I0811 03:32:40.972151 10215 net.cpp:406] fire3/relu_expand3x3 <- fire3/expand3x3
I0811 03:32:40.972153 10215 net.cpp:367] fire3/relu_expand3x3 -> fire3/expand3x3 (in-place)
I0811 03:32:40.972157 10215 net.cpp:122] Setting up fire3/relu_expand3x3
I0811 03:32:40.972159 10215 net.cpp:129] Top shape: 25 64 56 56 (5017600)
I0811 03:32:40.972162 10215 net.cpp:137] Memory required for data: 439817400
I0811 03:32:40.972163 10215 layer_factory.hpp:77] Creating layer fire3/concat
I0811 03:32:40.972167 10215 net.cpp:84] Creating Layer fire3/concat
I0811 03:32:40.972168 10215 net.cpp:406] fire3/concat <- fire3/expand1x1
I0811 03:32:40.972172 10215 net.cpp:406] fire3/concat <- fire3/expand3x3
I0811 03:32:40.972174 10215 net.cpp:380] fire3/concat -> fire3/concat
I0811 03:32:40.972188 10215 net.cpp:122] Setting up fire3/concat
I0811 03:32:40.972193 10215 net.cpp:129] Top shape: 25 128 56 56 (10035200)
I0811 03:32:40.972194 10215 net.cpp:137] Memory required for data: 479958200
I0811 03:32:40.972196 10215 layer_factory.hpp:77] Creating layer pool3
I0811 03:32:40.972199 10215 net.cpp:84] Creating Layer pool3
I0811 03:32:40.972201 10215 net.cpp:406] pool3 <- fire3/concat
I0811 03:32:40.972204 10215 net.cpp:380] pool3 -> pool3
I0811 03:32:40.972226 10215 net.cpp:122] Setting up pool3
I0811 03:32:40.972229 10215 net.cpp:129] Top shape: 25 128 28 28 (2508800)
I0811 03:32:40.972231 10215 net.cpp:137] Memory required for data: 489993400
I0811 03:32:40.972234 10215 layer_factory.hpp:77] Creating layer fire4/squeeze1x1
I0811 03:32:40.972239 10215 net.cpp:84] Creating Layer fire4/squeeze1x1
I0811 03:32:40.972240 10215 net.cpp:406] fire4/squeeze1x1 <- pool3
I0811 03:32:40.972244 10215 net.cpp:380] fire4/squeeze1x1 -> fire4/squeeze1x1
I0811 03:32:40.972417 10215 net.cpp:122] Setting up fire4/squeeze1x1
I0811 03:32:40.972421 10215 net.cpp:129] Top shape: 25 32 28 28 (627200)
I0811 03:32:40.972424 10215 net.cpp:137] Memory required for data: 492502200
I0811 03:32:40.972427 10215 layer_factory.hpp:77] Creating layer fire4/relu_squeeze1x1
I0811 03:32:40.972430 10215 net.cpp:84] Creating Layer fire4/relu_squeeze1x1
I0811 03:32:40.972432 10215 net.cpp:406] fire4/relu_squeeze1x1 <- fire4/squeeze1x1
I0811 03:32:40.972435 10215 net.cpp:367] fire4/relu_squeeze1x1 -> fire4/squeeze1x1 (in-place)
I0811 03:32:40.972438 10215 net.cpp:122] Setting up fire4/relu_squeeze1x1
I0811 03:32:40.972441 10215 net.cpp:129] Top shape: 25 32 28 28 (627200)
I0811 03:32:40.972443 10215 net.cpp:137] Memory required for data: 495011000
I0811 03:32:40.972445 10215 layer_factory.hpp:77] Creating layer fire4/squeeze1x1_fire4/relu_squeeze1x1_0_split
I0811 03:32:40.972448 10215 net.cpp:84] Creating Layer fire4/squeeze1x1_fire4/relu_squeeze1x1_0_split
I0811 03:32:40.972450 10215 net.cpp:406] fire4/squeeze1x1_fire4/relu_squeeze1x1_0_split <- fire4/squeeze1x1
I0811 03:32:40.972453 10215 net.cpp:380] fire4/squeeze1x1_fire4/relu_squeeze1x1_0_split -> fire4/squeeze1x1_fire4/relu_squeeze1x1_0_split_0
I0811 03:32:40.972457 10215 net.cpp:380] fire4/squeeze1x1_fire4/relu_squeeze1x1_0_split -> fire4/squeeze1x1_fire4/relu_squeeze1x1_0_split_1
I0811 03:32:40.972477 10215 net.cpp:122] Setting up fire4/squeeze1x1_fire4/relu_squeeze1x1_0_split
I0811 03:32:40.972481 10215 net.cpp:129] Top shape: 25 32 28 28 (627200)
I0811 03:32:40.972483 10215 net.cpp:129] Top shape: 25 32 28 28 (627200)
I0811 03:32:40.972486 10215 net.cpp:137] Memory required for data: 500028600
I0811 03:32:40.972487 10215 layer_factory.hpp:77] Creating layer fire4/expand1x1
I0811 03:32:40.972492 10215 net.cpp:84] Creating Layer fire4/expand1x1
I0811 03:32:40.972494 10215 net.cpp:406] fire4/expand1x1 <- fire4/squeeze1x1_fire4/relu_squeeze1x1_0_split_0
I0811 03:32:40.972498 10215 net.cpp:380] fire4/expand1x1 -> fire4/expand1x1
I0811 03:32:40.972664 10215 net.cpp:122] Setting up fire4/expand1x1
I0811 03:32:40.972673 10215 net.cpp:129] Top shape: 25 128 28 28 (2508800)
I0811 03:32:40.972676 10215 net.cpp:137] Memory required for data: 510063800
I0811 03:32:40.972681 10215 layer_factory.hpp:77] Creating layer fire4/relu_expand1x1
I0811 03:32:40.972685 10215 net.cpp:84] Creating Layer fire4/relu_expand1x1
I0811 03:32:40.972687 10215 net.cpp:406] fire4/relu_expand1x1 <- fire4/expand1x1
I0811 03:32:40.972690 10215 net.cpp:367] fire4/relu_expand1x1 -> fire4/expand1x1 (in-place)
I0811 03:32:40.972694 10215 net.cpp:122] Setting up fire4/relu_expand1x1
I0811 03:32:40.972697 10215 net.cpp:129] Top shape: 25 128 28 28 (2508800)
I0811 03:32:40.972698 10215 net.cpp:137] Memory required for data: 520099000
I0811 03:32:40.972700 10215 layer_factory.hpp:77] Creating layer fire4/expand3x3
I0811 03:32:40.972705 10215 net.cpp:84] Creating Layer fire4/expand3x3
I0811 03:32:40.972707 10215 net.cpp:406] fire4/expand3x3 <- fire4/squeeze1x1_fire4/relu_squeeze1x1_0_split_1
I0811 03:32:40.972712 10215 net.cpp:380] fire4/expand3x3 -> fire4/expand3x3
I0811 03:32:40.974289 10215 net.cpp:122] Setting up fire4/expand3x3
I0811 03:32:40.974298 10215 net.cpp:129] Top shape: 25 128 28 28 (2508800)
I0811 03:32:40.974301 10215 net.cpp:137] Memory required for data: 530134200
I0811 03:32:40.974305 10215 layer_factory.hpp:77] Creating layer fire4/relu_expand3x3
I0811 03:32:40.974309 10215 net.cpp:84] Creating Layer fire4/relu_expand3x3
I0811 03:32:40.974313 10215 net.cpp:406] fire4/relu_expand3x3 <- fire4/expand3x3
I0811 03:32:40.974316 10215 net.cpp:367] fire4/relu_expand3x3 -> fire4/expand3x3 (in-place)
I0811 03:32:40.974320 10215 net.cpp:122] Setting up fire4/relu_expand3x3
I0811 03:32:40.974323 10215 net.cpp:129] Top shape: 25 128 28 28 (2508800)
I0811 03:32:40.974325 10215 net.cpp:137] Memory required for data: 540169400
I0811 03:32:40.974328 10215 layer_factory.hpp:77] Creating layer fire4/concat
I0811 03:32:40.974333 10215 net.cpp:84] Creating Layer fire4/concat
I0811 03:32:40.974334 10215 net.cpp:406] fire4/concat <- fire4/expand1x1
I0811 03:32:40.974337 10215 net.cpp:406] fire4/concat <- fire4/expand3x3
I0811 03:32:40.974340 10215 net.cpp:380] fire4/concat -> fire4/concat
I0811 03:32:40.974355 10215 net.cpp:122] Setting up fire4/concat
I0811 03:32:40.974359 10215 net.cpp:129] Top shape: 25 256 28 28 (5017600)
I0811 03:32:40.974361 10215 net.cpp:137] Memory required for data: 560239800
I0811 03:32:40.974364 10215 layer_factory.hpp:77] Creating layer fire5/squeeze1x1
I0811 03:32:40.974367 10215 net.cpp:84] Creating Layer fire5/squeeze1x1
I0811 03:32:40.974370 10215 net.cpp:406] fire5/squeeze1x1 <- fire4/concat
I0811 03:32:40.974373 10215 net.cpp:380] fire5/squeeze1x1 -> fire5/squeeze1x1
I0811 03:32:40.974577 10215 net.cpp:122] Setting up fire5/squeeze1x1
I0811 03:32:40.974582 10215 net.cpp:129] Top shape: 25 32 28 28 (627200)
I0811 03:32:40.974584 10215 net.cpp:137] Memory required for data: 562748600
I0811 03:32:40.974588 10215 layer_factory.hpp:77] Creating layer fire5/relu_squeeze1x1
I0811 03:32:40.974591 10215 net.cpp:84] Creating Layer fire5/relu_squeeze1x1
I0811 03:32:40.974593 10215 net.cpp:406] fire5/relu_squeeze1x1 <- fire5/squeeze1x1
I0811 03:32:40.974596 10215 net.cpp:367] fire5/relu_squeeze1x1 -> fire5/squeeze1x1 (in-place)
I0811 03:32:40.974601 10215 net.cpp:122] Setting up fire5/relu_squeeze1x1
I0811 03:32:40.974603 10215 net.cpp:129] Top shape: 25 32 28 28 (627200)
I0811 03:32:40.974606 10215 net.cpp:137] Memory required for data: 565257400
I0811 03:32:40.974607 10215 layer_factory.hpp:77] Creating layer fire5/squeeze1x1_fire5/relu_squeeze1x1_0_split
I0811 03:32:40.974613 10215 net.cpp:84] Creating Layer fire5/squeeze1x1_fire5/relu_squeeze1x1_0_split
I0811 03:32:40.974615 10215 net.cpp:406] fire5/squeeze1x1_fire5/relu_squeeze1x1_0_split <- fire5/squeeze1x1
I0811 03:32:40.974618 10215 net.cpp:380] fire5/squeeze1x1_fire5/relu_squeeze1x1_0_split -> fire5/squeeze1x1_fire5/relu_squeeze1x1_0_split_0
I0811 03:32:40.974622 10215 net.cpp:380] fire5/squeeze1x1_fire5/relu_squeeze1x1_0_split -> fire5/squeeze1x1_fire5/relu_squeeze1x1_0_split_1
I0811 03:32:40.974654 10215 net.cpp:122] Setting up fire5/squeeze1x1_fire5/relu_squeeze1x1_0_split
I0811 03:32:40.974658 10215 net.cpp:129] Top shape: 25 32 28 28 (627200)
I0811 03:32:40.974660 10215 net.cpp:129] Top shape: 25 32 28 28 (627200)
I0811 03:32:40.974663 10215 net.cpp:137] Memory required for data: 570275000
I0811 03:32:40.974665 10215 layer_factory.hpp:77] Creating layer fire5/expand1x1
I0811 03:32:40.974669 10215 net.cpp:84] Creating Layer fire5/expand1x1
I0811 03:32:40.974671 10215 net.cpp:406] fire5/expand1x1 <- fire5/squeeze1x1_fire5/relu_squeeze1x1_0_split_0
I0811 03:32:40.974675 10215 net.cpp:380] fire5/expand1x1 -> fire5/expand1x1
I0811 03:32:40.974844 10215 net.cpp:122] Setting up fire5/expand1x1
I0811 03:32:40.974848 10215 net.cpp:129] Top shape: 25 128 28 28 (2508800)
I0811 03:32:40.974850 10215 net.cpp:137] Memory required for data: 580310200
I0811 03:32:40.974854 10215 layer_factory.hpp:77] Creating layer fire5/relu_expand1x1
I0811 03:32:40.974858 10215 net.cpp:84] Creating Layer fire5/relu_expand1x1
I0811 03:32:40.974860 10215 net.cpp:406] fire5/relu_expand1x1 <- fire5/expand1x1
I0811 03:32:40.974864 10215 net.cpp:367] fire5/relu_expand1x1 -> fire5/expand1x1 (in-place)
I0811 03:32:40.974866 10215 net.cpp:122] Setting up fire5/relu_expand1x1
I0811 03:32:40.974869 10215 net.cpp:129] Top shape: 25 128 28 28 (2508800)
I0811 03:32:40.974871 10215 net.cpp:137] Memory required for data: 590345400
I0811 03:32:40.974874 10215 layer_factory.hpp:77] Creating layer fire5/expand3x3
I0811 03:32:40.974877 10215 net.cpp:84] Creating Layer fire5/expand3x3
I0811 03:32:40.974879 10215 net.cpp:406] fire5/expand3x3 <- fire5/squeeze1x1_fire5/relu_squeeze1x1_0_split_1
I0811 03:32:40.974884 10215 net.cpp:380] fire5/expand3x3 -> fire5/expand3x3
I0811 03:32:40.975225 10215 net.cpp:122] Setting up fire5/expand3x3
I0811 03:32:40.975230 10215 net.cpp:129] Top shape: 25 128 28 28 (2508800)
I0811 03:32:40.975232 10215 net.cpp:137] Memory required for data: 600380600
I0811 03:32:40.975235 10215 layer_factory.hpp:77] Creating layer fire5/relu_expand3x3
I0811 03:32:40.975239 10215 net.cpp:84] Creating Layer fire5/relu_expand3x3
I0811 03:32:40.975241 10215 net.cpp:406] fire5/relu_expand3x3 <- fire5/expand3x3
I0811 03:32:40.975244 10215 net.cpp:367] fire5/relu_expand3x3 -> fire5/expand3x3 (in-place)
I0811 03:32:40.975247 10215 net.cpp:122] Setting up fire5/relu_expand3x3
I0811 03:32:40.975250 10215 net.cpp:129] Top shape: 25 128 28 28 (2508800)
I0811 03:32:40.975252 10215 net.cpp:137] Memory required for data: 610415800
I0811 03:32:40.975255 10215 layer_factory.hpp:77] Creating layer fire5/concat
I0811 03:32:40.975257 10215 net.cpp:84] Creating Layer fire5/concat
I0811 03:32:40.975260 10215 net.cpp:406] fire5/concat <- fire5/expand1x1
I0811 03:32:40.975262 10215 net.cpp:406] fire5/concat <- fire5/expand3x3
I0811 03:32:40.975265 10215 net.cpp:380] fire5/concat -> fire5/concat
I0811 03:32:40.975280 10215 net.cpp:122] Setting up fire5/concat
I0811 03:32:40.975282 10215 net.cpp:129] Top shape: 25 256 28 28 (5017600)
I0811 03:32:40.975284 10215 net.cpp:137] Memory required for data: 630486200
I0811 03:32:40.975286 10215 layer_factory.hpp:77] Creating layer pool5
I0811 03:32:40.975291 10215 net.cpp:84] Creating Layer pool5
I0811 03:32:40.975292 10215 net.cpp:406] pool5 <- fire5/concat
I0811 03:32:40.975296 10215 net.cpp:380] pool5 -> pool5
I0811 03:32:40.975317 10215 net.cpp:122] Setting up pool5
I0811 03:32:40.975322 10215 net.cpp:129] Top shape: 25 256 14 14 (1254400)
I0811 03:32:40.975323 10215 net.cpp:137] Memory required for data: 635503800
I0811 03:32:40.975325 10215 layer_factory.hpp:77] Creating layer fire6/squeeze1x1
I0811 03:32:40.975329 10215 net.cpp:84] Creating Layer fire6/squeeze1x1
I0811 03:32:40.975332 10215 net.cpp:406] fire6/squeeze1x1 <- pool5
I0811 03:32:40.975334 10215 net.cpp:380] fire6/squeeze1x1 -> fire6/squeeze1x1
I0811 03:32:40.975553 10215 net.cpp:122] Setting up fire6/squeeze1x1
I0811 03:32:40.975558 10215 net.cpp:129] Top shape: 25 48 14 14 (235200)
I0811 03:32:40.975559 10215 net.cpp:137] Memory required for data: 636444600
I0811 03:32:40.975569 10215 layer_factory.hpp:77] Creating layer fire6/relu_squeeze1x1
I0811 03:32:40.975572 10215 net.cpp:84] Creating Layer fire6/relu_squeeze1x1
I0811 03:32:40.975574 10215 net.cpp:406] fire6/relu_squeeze1x1 <- fire6/squeeze1x1
I0811 03:32:40.975577 10215 net.cpp:367] fire6/relu_squeeze1x1 -> fire6/squeeze1x1 (in-place)
I0811 03:32:40.975581 10215 net.cpp:122] Setting up fire6/relu_squeeze1x1
I0811 03:32:40.975584 10215 net.cpp:129] Top shape: 25 48 14 14 (235200)
I0811 03:32:40.975586 10215 net.cpp:137] Memory required for data: 637385400
I0811 03:32:40.975589 10215 layer_factory.hpp:77] Creating layer fire6/squeeze1x1_fire6/relu_squeeze1x1_0_split
I0811 03:32:40.975591 10215 net.cpp:84] Creating Layer fire6/squeeze1x1_fire6/relu_squeeze1x1_0_split
I0811 03:32:40.975594 10215 net.cpp:406] fire6/squeeze1x1_fire6/relu_squeeze1x1_0_split <- fire6/squeeze1x1
I0811 03:32:40.975596 10215 net.cpp:380] fire6/squeeze1x1_fire6/relu_squeeze1x1_0_split -> fire6/squeeze1x1_fire6/relu_squeeze1x1_0_split_0
I0811 03:32:40.975600 10215 net.cpp:380] fire6/squeeze1x1_fire6/relu_squeeze1x1_0_split -> fire6/squeeze1x1_fire6/relu_squeeze1x1_0_split_1
I0811 03:32:40.975627 10215 net.cpp:122] Setting up fire6/squeeze1x1_fire6/relu_squeeze1x1_0_split
I0811 03:32:40.975631 10215 net.cpp:129] Top shape: 25 48 14 14 (235200)
I0811 03:32:40.975634 10215 net.cpp:129] Top shape: 25 48 14 14 (235200)
I0811 03:32:40.975636 10215 net.cpp:137] Memory required for data: 639267000
I0811 03:32:40.975637 10215 layer_factory.hpp:77] Creating layer fire6/expand1x1
I0811 03:32:40.975641 10215 net.cpp:84] Creating Layer fire6/expand1x1
I0811 03:32:40.975644 10215 net.cpp:406] fire6/expand1x1 <- fire6/squeeze1x1_fire6/relu_squeeze1x1_0_split_0
I0811 03:32:40.975647 10215 net.cpp:380] fire6/expand1x1 -> fire6/expand1x1
I0811 03:32:40.975842 10215 net.cpp:122] Setting up fire6/expand1x1
I0811 03:32:40.975847 10215 net.cpp:129] Top shape: 25 192 14 14 (940800)
I0811 03:32:40.975848 10215 net.cpp:137] Memory required for data: 643030200
I0811 03:32:40.975852 10215 layer_factory.hpp:77] Creating layer fire6/relu_expand1x1
I0811 03:32:40.975855 10215 net.cpp:84] Creating Layer fire6/relu_expand1x1
I0811 03:32:40.975857 10215 net.cpp:406] fire6/relu_expand1x1 <- fire6/expand1x1
I0811 03:32:40.975860 10215 net.cpp:367] fire6/relu_expand1x1 -> fire6/expand1x1 (in-place)
I0811 03:32:40.975863 10215 net.cpp:122] Setting up fire6/relu_expand1x1
I0811 03:32:40.975867 10215 net.cpp:129] Top shape: 25 192 14 14 (940800)
I0811 03:32:40.975867 10215 net.cpp:137] Memory required for data: 646793400
I0811 03:32:40.975869 10215 layer_factory.hpp:77] Creating layer fire6/expand3x3
I0811 03:32:40.975873 10215 net.cpp:84] Creating Layer fire6/expand3x3
I0811 03:32:40.975877 10215 net.cpp:406] fire6/expand3x3 <- fire6/squeeze1x1_fire6/relu_squeeze1x1_0_split_1
I0811 03:32:40.975879 10215 net.cpp:380] fire6/expand3x3 -> fire6/expand3x3
I0811 03:32:40.976475 10215 net.cpp:122] Setting up fire6/expand3x3
I0811 03:32:40.976478 10215 net.cpp:129] Top shape: 25 192 14 14 (940800)
I0811 03:32:40.976480 10215 net.cpp:137] Memory required for data: 650556600
I0811 03:32:40.976485 10215 layer_factory.hpp:77] Creating layer fire6/relu_expand3x3
I0811 03:32:40.976487 10215 net.cpp:84] Creating Layer fire6/relu_expand3x3
I0811 03:32:40.976490 10215 net.cpp:406] fire6/relu_expand3x3 <- fire6/expand3x3
I0811 03:32:40.976492 10215 net.cpp:367] fire6/relu_expand3x3 -> fire6/expand3x3 (in-place)
I0811 03:32:40.976496 10215 net.cpp:122] Setting up fire6/relu_expand3x3
I0811 03:32:40.976500 10215 net.cpp:129] Top shape: 25 192 14 14 (940800)
I0811 03:32:40.976500 10215 net.cpp:137] Memory required for data: 654319800
I0811 03:32:40.976502 10215 layer_factory.hpp:77] Creating layer fire6/concat
I0811 03:32:40.976506 10215 net.cpp:84] Creating Layer fire6/concat
I0811 03:32:40.976508 10215 net.cpp:406] fire6/concat <- fire6/expand1x1
I0811 03:32:40.976511 10215 net.cpp:406] fire6/concat <- fire6/expand3x3
I0811 03:32:40.976513 10215 net.cpp:380] fire6/concat -> fire6/concat
I0811 03:32:40.976536 10215 net.cpp:122] Setting up fire6/concat
I0811 03:32:40.976539 10215 net.cpp:129] Top shape: 25 384 14 14 (1881600)
I0811 03:32:40.976541 10215 net.cpp:137] Memory required for data: 661846200
I0811 03:32:40.976543 10215 layer_factory.hpp:77] Creating layer fire7/squeeze1x1
I0811 03:32:40.976547 10215 net.cpp:84] Creating Layer fire7/squeeze1x1
I0811 03:32:40.976549 10215 net.cpp:406] fire7/squeeze1x1 <- fire6/concat
I0811 03:32:40.976553 10215 net.cpp:380] fire7/squeeze1x1 -> fire7/squeeze1x1
I0811 03:32:40.976809 10215 net.cpp:122] Setting up fire7/squeeze1x1
I0811 03:32:40.976814 10215 net.cpp:129] Top shape: 25 48 14 14 (235200)
I0811 03:32:40.976815 10215 net.cpp:137] Memory required for data: 662787000
I0811 03:32:40.976824 10215 layer_factory.hpp:77] Creating layer fire7/relu_squeeze1x1
I0811 03:32:40.976826 10215 net.cpp:84] Creating Layer fire7/relu_squeeze1x1
I0811 03:32:40.976828 10215 net.cpp:406] fire7/relu_squeeze1x1 <- fire7/squeeze1x1
I0811 03:32:40.976832 10215 net.cpp:367] fire7/relu_squeeze1x1 -> fire7/squeeze1x1 (in-place)
I0811 03:32:40.976835 10215 net.cpp:122] Setting up fire7/relu_squeeze1x1
I0811 03:32:40.976838 10215 net.cpp:129] Top shape: 25 48 14 14 (235200)
I0811 03:32:40.976840 10215 net.cpp:137] Memory required for data: 663727800
I0811 03:32:40.976842 10215 layer_factory.hpp:77] Creating layer fire7/squeeze1x1_fire7/relu_squeeze1x1_0_split
I0811 03:32:40.976845 10215 net.cpp:84] Creating Layer fire7/squeeze1x1_fire7/relu_squeeze1x1_0_split
I0811 03:32:40.976847 10215 net.cpp:406] fire7/squeeze1x1_fire7/relu_squeeze1x1_0_split <- fire7/squeeze1x1
I0811 03:32:40.976850 10215 net.cpp:380] fire7/squeeze1x1_fire7/relu_squeeze1x1_0_split -> fire7/squeeze1x1_fire7/relu_squeeze1x1_0_split_0
I0811 03:32:40.976855 10215 net.cpp:380] fire7/squeeze1x1_fire7/relu_squeeze1x1_0_split -> fire7/squeeze1x1_fire7/relu_squeeze1x1_0_split_1
I0811 03:32:40.976877 10215 net.cpp:122] Setting up fire7/squeeze1x1_fire7/relu_squeeze1x1_0_split
I0811 03:32:40.976881 10215 net.cpp:129] Top shape: 25 48 14 14 (235200)
I0811 03:32:40.976883 10215 net.cpp:129] Top shape: 25 48 14 14 (235200)
I0811 03:32:40.976886 10215 net.cpp:137] Memory required for data: 665609400
I0811 03:32:40.976887 10215 layer_factory.hpp:77] Creating layer fire7/expand1x1
I0811 03:32:40.976891 10215 net.cpp:84] Creating Layer fire7/expand1x1
I0811 03:32:40.976893 10215 net.cpp:406] fire7/expand1x1 <- fire7/squeeze1x1_fire7/relu_squeeze1x1_0_split_0
I0811 03:32:40.976897 10215 net.cpp:380] fire7/expand1x1 -> fire7/expand1x1
I0811 03:32:40.977090 10215 net.cpp:122] Setting up fire7/expand1x1
I0811 03:32:40.977094 10215 net.cpp:129] Top shape: 25 192 14 14 (940800)
I0811 03:32:40.977097 10215 net.cpp:137] Memory required for data: 669372600
I0811 03:32:40.977100 10215 layer_factory.hpp:77] Creating layer fire7/relu_expand1x1
I0811 03:32:40.977103 10215 net.cpp:84] Creating Layer fire7/relu_expand1x1
I0811 03:32:40.977105 10215 net.cpp:406] fire7/relu_expand1x1 <- fire7/expand1x1
I0811 03:32:40.977108 10215 net.cpp:367] fire7/relu_expand1x1 -> fire7/expand1x1 (in-place)
I0811 03:32:40.977111 10215 net.cpp:122] Setting up fire7/relu_expand1x1
I0811 03:32:40.977114 10215 net.cpp:129] Top shape: 25 192 14 14 (940800)
I0811 03:32:40.977116 10215 net.cpp:137] Memory required for data: 673135800
I0811 03:32:40.977118 10215 layer_factory.hpp:77] Creating layer fire7/expand3x3
I0811 03:32:40.977123 10215 net.cpp:84] Creating Layer fire7/expand3x3
I0811 03:32:40.977124 10215 net.cpp:406] fire7/expand3x3 <- fire7/squeeze1x1_fire7/relu_squeeze1x1_0_split_1
I0811 03:32:40.977128 10215 net.cpp:380] fire7/expand3x3 -> fire7/expand3x3
I0811 03:32:40.977715 10215 net.cpp:122] Setting up fire7/expand3x3
I0811 03:32:40.977718 10215 net.cpp:129] Top shape: 25 192 14 14 (940800)
I0811 03:32:40.977720 10215 net.cpp:137] Memory required for data: 676899000
I0811 03:32:40.977725 10215 layer_factory.hpp:77] Creating layer fire7/relu_expand3x3
I0811 03:32:40.977727 10215 net.cpp:84] Creating Layer fire7/relu_expand3x3
I0811 03:32:40.977730 10215 net.cpp:406] fire7/relu_expand3x3 <- fire7/expand3x3
I0811 03:32:40.977738 10215 net.cpp:367] fire7/relu_expand3x3 -> fire7/expand3x3 (in-place)
I0811 03:32:40.977741 10215 net.cpp:122] Setting up fire7/relu_expand3x3
I0811 03:32:40.977744 10215 net.cpp:129] Top shape: 25 192 14 14 (940800)
I0811 03:32:40.977746 10215 net.cpp:137] Memory required for data: 680662200
I0811 03:32:40.977748 10215 layer_factory.hpp:77] Creating layer fire7/concat
I0811 03:32:40.977751 10215 net.cpp:84] Creating Layer fire7/concat
I0811 03:32:40.977753 10215 net.cpp:406] fire7/concat <- fire7/expand1x1
I0811 03:32:40.977756 10215 net.cpp:406] fire7/concat <- fire7/expand3x3
I0811 03:32:40.977758 10215 net.cpp:380] fire7/concat -> fire7/concat
I0811 03:32:40.977773 10215 net.cpp:122] Setting up fire7/concat
I0811 03:32:40.977777 10215 net.cpp:129] Top shape: 25 384 14 14 (1881600)
I0811 03:32:40.977778 10215 net.cpp:137] Memory required for data: 688188600
I0811 03:32:40.977780 10215 layer_factory.hpp:77] Creating layer fire8/squeeze1x1
I0811 03:32:40.977784 10215 net.cpp:84] Creating Layer fire8/squeeze1x1
I0811 03:32:40.977787 10215 net.cpp:406] fire8/squeeze1x1 <- fire7/concat
I0811 03:32:40.977790 10215 net.cpp:380] fire8/squeeze1x1 -> fire8/squeeze1x1
I0811 03:32:40.978065 10215 net.cpp:122] Setting up fire8/squeeze1x1
I0811 03:32:40.978070 10215 net.cpp:129] Top shape: 25 64 14 14 (313600)
I0811 03:32:40.978071 10215 net.cpp:137] Memory required for data: 689443000
I0811 03:32:40.978075 10215 layer_factory.hpp:77] Creating layer fire8/relu_squeeze1x1
I0811 03:32:40.978078 10215 net.cpp:84] Creating Layer fire8/relu_squeeze1x1
I0811 03:32:40.978080 10215 net.cpp:406] fire8/relu_squeeze1x1 <- fire8/squeeze1x1
I0811 03:32:40.978083 10215 net.cpp:367] fire8/relu_squeeze1x1 -> fire8/squeeze1x1 (in-place)
I0811 03:32:40.978087 10215 net.cpp:122] Setting up fire8/relu_squeeze1x1
I0811 03:32:40.978090 10215 net.cpp:129] Top shape: 25 64 14 14 (313600)
I0811 03:32:40.978091 10215 net.cpp:137] Memory required for data: 690697400
I0811 03:32:40.978093 10215 layer_factory.hpp:77] Creating layer fire8/squeeze1x1_fire8/relu_squeeze1x1_0_split
I0811 03:32:40.978096 10215 net.cpp:84] Creating Layer fire8/squeeze1x1_fire8/relu_squeeze1x1_0_split
I0811 03:32:40.978098 10215 net.cpp:406] fire8/squeeze1x1_fire8/relu_squeeze1x1_0_split <- fire8/squeeze1x1
I0811 03:32:40.978101 10215 net.cpp:380] fire8/squeeze1x1_fire8/relu_squeeze1x1_0_split -> fire8/squeeze1x1_fire8/relu_squeeze1x1_0_split_0
I0811 03:32:40.978106 10215 net.cpp:380] fire8/squeeze1x1_fire8/relu_squeeze1x1_0_split -> fire8/squeeze1x1_fire8/relu_squeeze1x1_0_split_1
I0811 03:32:40.978128 10215 net.cpp:122] Setting up fire8/squeeze1x1_fire8/relu_squeeze1x1_0_split
I0811 03:32:40.978132 10215 net.cpp:129] Top shape: 25 64 14 14 (313600)
I0811 03:32:40.978134 10215 net.cpp:129] Top shape: 25 64 14 14 (313600)
I0811 03:32:40.978137 10215 net.cpp:137] Memory required for data: 693206200
I0811 03:32:40.978138 10215 layer_factory.hpp:77] Creating layer fire8/expand1x1
I0811 03:32:40.978142 10215 net.cpp:84] Creating Layer fire8/expand1x1
I0811 03:32:40.978144 10215 net.cpp:406] fire8/expand1x1 <- fire8/squeeze1x1_fire8/relu_squeeze1x1_0_split_0
I0811 03:32:40.978148 10215 net.cpp:380] fire8/expand1x1 -> fire8/expand1x1
I0811 03:32:40.978379 10215 net.cpp:122] Setting up fire8/expand1x1
I0811 03:32:40.978384 10215 net.cpp:129] Top shape: 25 256 14 14 (1254400)
I0811 03:32:40.978385 10215 net.cpp:137] Memory required for data: 698223800
I0811 03:32:40.978389 10215 layer_factory.hpp:77] Creating layer fire8/relu_expand1x1
I0811 03:32:40.978392 10215 net.cpp:84] Creating Layer fire8/relu_expand1x1
I0811 03:32:40.978394 10215 net.cpp:406] fire8/relu_expand1x1 <- fire8/expand1x1
I0811 03:32:40.978397 10215 net.cpp:367] fire8/relu_expand1x1 -> fire8/expand1x1 (in-place)
I0811 03:32:40.978400 10215 net.cpp:122] Setting up fire8/relu_expand1x1
I0811 03:32:40.978404 10215 net.cpp:129] Top shape: 25 256 14 14 (1254400)
I0811 03:32:40.978405 10215 net.cpp:137] Memory required for data: 703241400
I0811 03:32:40.978407 10215 layer_factory.hpp:77] Creating layer fire8/expand3x3
I0811 03:32:40.978416 10215 net.cpp:84] Creating Layer fire8/expand3x3
I0811 03:32:40.978418 10215 net.cpp:406] fire8/expand3x3 <- fire8/squeeze1x1_fire8/relu_squeeze1x1_0_split_1
I0811 03:32:40.978422 10215 net.cpp:380] fire8/expand3x3 -> fire8/expand3x3
I0811 03:32:40.980054 10215 net.cpp:122] Setting up fire8/expand3x3
I0811 03:32:40.980065 10215 net.cpp:129] Top shape: 25 256 14 14 (1254400)
I0811 03:32:40.980068 10215 net.cpp:137] Memory required for data: 708259000
I0811 03:32:40.980072 10215 layer_factory.hpp:77] Creating layer fire8/relu_expand3x3
I0811 03:32:40.980077 10215 net.cpp:84] Creating Layer fire8/relu_expand3x3
I0811 03:32:40.980080 10215 net.cpp:406] fire8/relu_expand3x3 <- fire8/expand3x3
I0811 03:32:40.980083 10215 net.cpp:367] fire8/relu_expand3x3 -> fire8/expand3x3 (in-place)
I0811 03:32:40.980089 10215 net.cpp:122] Setting up fire8/relu_expand3x3
I0811 03:32:40.980092 10215 net.cpp:129] Top shape: 25 256 14 14 (1254400)
I0811 03:32:40.980093 10215 net.cpp:137] Memory required for data: 713276600
I0811 03:32:40.980096 10215 layer_factory.hpp:77] Creating layer fire8/concat
I0811 03:32:40.980099 10215 net.cpp:84] Creating Layer fire8/concat
I0811 03:32:40.980101 10215 net.cpp:406] fire8/concat <- fire8/expand1x1
I0811 03:32:40.980104 10215 net.cpp:406] fire8/concat <- fire8/expand3x3
I0811 03:32:40.980108 10215 net.cpp:380] fire8/concat -> fire8/concat
I0811 03:32:40.980127 10215 net.cpp:122] Setting up fire8/concat
I0811 03:32:40.980131 10215 net.cpp:129] Top shape: 25 512 14 14 (2508800)
I0811 03:32:40.980134 10215 net.cpp:137] Memory required for data: 723311800
I0811 03:32:40.980135 10215 layer_factory.hpp:77] Creating layer fire9/squeeze1x1
I0811 03:32:40.980140 10215 net.cpp:84] Creating Layer fire9/squeeze1x1
I0811 03:32:40.980142 10215 net.cpp:406] fire9/squeeze1x1 <- fire8/concat
I0811 03:32:40.980145 10215 net.cpp:380] fire9/squeeze1x1 -> fire9/squeeze1x1
I0811 03:32:40.980475 10215 net.cpp:122] Setting up fire9/squeeze1x1
I0811 03:32:40.980480 10215 net.cpp:129] Top shape: 25 64 14 14 (313600)
I0811 03:32:40.980482 10215 net.cpp:137] Memory required for data: 724566200
I0811 03:32:40.980485 10215 layer_factory.hpp:77] Creating layer fire9/relu_squeeze1x1
I0811 03:32:40.980494 10215 net.cpp:84] Creating Layer fire9/relu_squeeze1x1
I0811 03:32:40.980496 10215 net.cpp:406] fire9/relu_squeeze1x1 <- fire9/squeeze1x1
I0811 03:32:40.980499 10215 net.cpp:367] fire9/relu_squeeze1x1 -> fire9/squeeze1x1 (in-place)
I0811 03:32:40.980504 10215 net.cpp:122] Setting up fire9/relu_squeeze1x1
I0811 03:32:40.980506 10215 net.cpp:129] Top shape: 25 64 14 14 (313600)
I0811 03:32:40.980509 10215 net.cpp:137] Memory required for data: 725820600
I0811 03:32:40.980510 10215 layer_factory.hpp:77] Creating layer fire9/squeeze1x1_fire9/relu_squeeze1x1_0_split
I0811 03:32:40.980514 10215 net.cpp:84] Creating Layer fire9/squeeze1x1_fire9/relu_squeeze1x1_0_split
I0811 03:32:40.980515 10215 net.cpp:406] fire9/squeeze1x1_fire9/relu_squeeze1x1_0_split <- fire9/squeeze1x1
I0811 03:32:40.980518 10215 net.cpp:380] fire9/squeeze1x1_fire9/relu_squeeze1x1_0_split -> fire9/squeeze1x1_fire9/relu_squeeze1x1_0_split_0
I0811 03:32:40.980522 10215 net.cpp:380] fire9/squeeze1x1_fire9/relu_squeeze1x1_0_split -> fire9/squeeze1x1_fire9/relu_squeeze1x1_0_split_1
I0811 03:32:40.980545 10215 net.cpp:122] Setting up fire9/squeeze1x1_fire9/relu_squeeze1x1_0_split
I0811 03:32:40.980549 10215 net.cpp:129] Top shape: 25 64 14 14 (313600)
I0811 03:32:40.980551 10215 net.cpp:129] Top shape: 25 64 14 14 (313600)
I0811 03:32:40.980553 10215 net.cpp:137] Memory required for data: 728329400
I0811 03:32:40.980556 10215 layer_factory.hpp:77] Creating layer fire9/expand1x1
I0811 03:32:40.980559 10215 net.cpp:84] Creating Layer fire9/expand1x1
I0811 03:32:40.980561 10215 net.cpp:406] fire9/expand1x1 <- fire9/squeeze1x1_fire9/relu_squeeze1x1_0_split_0
I0811 03:32:40.980566 10215 net.cpp:380] fire9/expand1x1 -> fire9/expand1x1
I0811 03:32:40.980798 10215 net.cpp:122] Setting up fire9/expand1x1
I0811 03:32:40.980810 10215 net.cpp:129] Top shape: 25 256 14 14 (1254400)
I0811 03:32:40.980813 10215 net.cpp:137] Memory required for data: 733347000
I0811 03:32:40.980816 10215 layer_factory.hpp:77] Creating layer fire9/relu_expand1x1
I0811 03:32:40.980819 10215 net.cpp:84] Creating Layer fire9/relu_expand1x1
I0811 03:32:40.980823 10215 net.cpp:406] fire9/relu_expand1x1 <- fire9/expand1x1
I0811 03:32:40.980825 10215 net.cpp:367] fire9/relu_expand1x1 -> fire9/expand1x1 (in-place)
I0811 03:32:40.980829 10215 net.cpp:122] Setting up fire9/relu_expand1x1
I0811 03:32:40.980831 10215 net.cpp:129] Top shape: 25 256 14 14 (1254400)
I0811 03:32:40.980834 10215 net.cpp:137] Memory required for data: 738364600
I0811 03:32:40.980835 10215 layer_factory.hpp:77] Creating layer fire9/expand3x3
I0811 03:32:40.980839 10215 net.cpp:84] Creating Layer fire9/expand3x3
I0811 03:32:40.980842 10215 net.cpp:406] fire9/expand3x3 <- fire9/squeeze1x1_fire9/relu_squeeze1x1_0_split_1
I0811 03:32:40.980845 10215 net.cpp:380] fire9/expand3x3 -> fire9/expand3x3
I0811 03:32:40.981781 10215 net.cpp:122] Setting up fire9/expand3x3
I0811 03:32:40.981786 10215 net.cpp:129] Top shape: 25 256 14 14 (1254400)
I0811 03:32:40.981788 10215 net.cpp:137] Memory required for data: 743382200
I0811 03:32:40.981792 10215 layer_factory.hpp:77] Creating layer fire9/relu_expand3x3
I0811 03:32:40.981796 10215 net.cpp:84] Creating Layer fire9/relu_expand3x3
I0811 03:32:40.981797 10215 net.cpp:406] fire9/relu_expand3x3 <- fire9/expand3x3
I0811 03:32:40.981801 10215 net.cpp:367] fire9/relu_expand3x3 -> fire9/expand3x3 (in-place)
I0811 03:32:40.981804 10215 net.cpp:122] Setting up fire9/relu_expand3x3
I0811 03:32:40.981807 10215 net.cpp:129] Top shape: 25 256 14 14 (1254400)
I0811 03:32:40.981809 10215 net.cpp:137] Memory required for data: 748399800
I0811 03:32:40.981812 10215 layer_factory.hpp:77] Creating layer fire9/concat
I0811 03:32:40.981814 10215 net.cpp:84] Creating Layer fire9/concat
I0811 03:32:40.981817 10215 net.cpp:406] fire9/concat <- fire9/expand1x1
I0811 03:32:40.981818 10215 net.cpp:406] fire9/concat <- fire9/expand3x3
I0811 03:32:40.981822 10215 net.cpp:380] fire9/concat -> fire9/concat
I0811 03:32:40.981837 10215 net.cpp:122] Setting up fire9/concat
I0811 03:32:40.981839 10215 net.cpp:129] Top shape: 25 512 14 14 (2508800)
I0811 03:32:40.981842 10215 net.cpp:137] Memory required for data: 758435000
I0811 03:32:40.981843 10215 layer_factory.hpp:77] Creating layer drop9
I0811 03:32:40.981848 10215 net.cpp:84] Creating Layer drop9
I0811 03:32:40.981849 10215 net.cpp:406] drop9 <- fire9/concat
I0811 03:32:40.981853 10215 net.cpp:367] drop9 -> fire9/concat (in-place)
I0811 03:32:40.981866 10215 net.cpp:122] Setting up drop9
I0811 03:32:40.981869 10215 net.cpp:129] Top shape: 25 512 14 14 (2508800)
I0811 03:32:40.981871 10215 net.cpp:137] Memory required for data: 768470200
I0811 03:32:40.981873 10215 layer_factory.hpp:77] Creating layer conv10
I0811 03:32:40.981878 10215 net.cpp:84] Creating Layer conv10
I0811 03:32:40.981879 10215 net.cpp:406] conv10 <- fire9/concat
I0811 03:32:40.981883 10215 net.cpp:380] conv10 -> conv10
I0811 03:32:40.995111 10215 net.cpp:122] Setting up conv10
I0811 03:32:40.995126 10215 net.cpp:129] Top shape: 25 1000 14 14 (4900000)
I0811 03:32:40.995127 10215 net.cpp:137] Memory required for data: 788070200
I0811 03:32:40.995133 10215 layer_factory.hpp:77] Creating layer relu_conv10
I0811 03:32:40.995141 10215 net.cpp:84] Creating Layer relu_conv10
I0811 03:32:40.995143 10215 net.cpp:406] relu_conv10 <- conv10
I0811 03:32:40.995148 10215 net.cpp:367] relu_conv10 -> conv10 (in-place)
I0811 03:32:40.995153 10215 net.cpp:122] Setting up relu_conv10
I0811 03:32:40.995157 10215 net.cpp:129] Top shape: 25 1000 14 14 (4900000)
I0811 03:32:40.995158 10215 net.cpp:137] Memory required for data: 807670200
I0811 03:32:40.995160 10215 layer_factory.hpp:77] Creating layer pool10
I0811 03:32:40.995164 10215 net.cpp:84] Creating Layer pool10
I0811 03:32:40.995167 10215 net.cpp:406] pool10 <- conv10
I0811 03:32:40.995170 10215 net.cpp:380] pool10 -> pool10
I0811 03:32:40.995203 10215 net.cpp:122] Setting up pool10
I0811 03:32:40.995206 10215 net.cpp:129] Top shape: 25 1000 1 1 (25000)
I0811 03:32:40.995208 10215 net.cpp:137] Memory required for data: 807770200
I0811 03:32:40.995210 10215 layer_factory.hpp:77] Creating layer pool10_pool10_0_split
I0811 03:32:40.995213 10215 net.cpp:84] Creating Layer pool10_pool10_0_split
I0811 03:32:40.995215 10215 net.cpp:406] pool10_pool10_0_split <- pool10
I0811 03:32:40.995218 10215 net.cpp:380] pool10_pool10_0_split -> pool10_pool10_0_split_0
I0811 03:32:40.995223 10215 net.cpp:380] pool10_pool10_0_split -> pool10_pool10_0_split_1
I0811 03:32:40.995244 10215 net.cpp:122] Setting up pool10_pool10_0_split
I0811 03:32:40.995247 10215 net.cpp:129] Top shape: 25 1000 1 1 (25000)
I0811 03:32:40.995250 10215 net.cpp:129] Top shape: 25 1000 1 1 (25000)
I0811 03:32:40.995252 10215 net.cpp:137] Memory required for data: 807970200
I0811 03:32:40.995254 10215 layer_factory.hpp:77] Creating layer accuracy
I0811 03:32:40.995259 10215 net.cpp:84] Creating Layer accuracy
I0811 03:32:40.995260 10215 net.cpp:406] accuracy <- pool10_pool10_0_split_0
I0811 03:32:40.995263 10215 net.cpp:406] accuracy <- label_val-data_1_split_0
I0811 03:32:40.995266 10215 net.cpp:380] accuracy -> accuracy
…
