…
I0416 14:08:04.710786  9541 net.cpp:294] The NetState phase (0) differed from the phase (1) specified by a rule in layer accuracy
I0416 14:08:04.710867  9541 net.cpp:51] Initializing net from parameters:
state {
phase: TRAIN
level: 0
stage: ""
}
layer {
name: "train-data"
type: "Data"
top: "data"
top: "label"
include {
phase: TRAIN
}
transform_param {
mirror: true
crop_size: 110
mean_file: "/home/fei/digits/digits/jobs/20180416-002052-9173/mean.binaryproto"
}
data_param {
source: "/home/fei/digits/digits/jobs/20180416-002052-9173/train_db"
batch_size: 128
backend: LMDB
}
}
layer {
name: "conv1"
type: "Convolution"
bottom: "data"
top: "conv1"
param {
lr_mult: 1
decay_mult: 1
}
param {
lr_mult: 2
decay_mult: 0
}
convolution_param {
num_output: 32
kernel_size: 8
stride: 4
weight_filler {
type: "gaussian"
std: 0.01
}
bias_filler {
type: "constant"
value: 0
}
}
}
layer {
name: "relu1"
type: "ReLU"
bottom: "conv1"
top: "conv1"
}
layer {
name: "norm1"
type: "LRN"
bottom: "conv1"
top: "norm1"
lrn_param {
local_size: 5
alpha: 0.0001
beta: 0.75
}
}
layer {
name: "pool1"
type: "Pooling"
bottom: "norm1"
top: "pool1"
pooling_param {
pool: MAX
kernel_size: 3
stride: 1
}
}
layer {
name: "conv2"
type: "Convolution"
bottom: "pool1"
top: "conv2"
param {
lr_mult: 1
decay_mult: 1
}
param {
lr_mult: 2
decay_mult: 0
}
convolution_param {
num_output: 64
pad: 0
kernel_size: 4
stride: 2
weight_filler {
type: "gaussian"
std: 0.01
}
bias_filler {
type: "constant"
value: 0
}
}
}
layer {
name: "relu2"
type: "ReLU"
bottom: "conv2"
top: "conv2"
}
layer {
name: "conv3"
type: "Convolution"
bottom: "conv2"
top: "conv3"
param {
lr_mult: 1
decay_mult: 1
}
param {
lr_mult: 2
decay_mult: 0
}
convolution_param {
num_output: 64
pad: 0
kernel_size: 3
stride: 1
weight_filler {
type: "gaussian"
std: 0.01
}
bias_filler {
type: "constant"
value: 0
}
}
}
layer {
name: "relu3"
type: "ReLU"
bottom: "conv3"
top: "conv3"
}
layer {
name: "fc7"
type: "InnerProduct"
bottom: "conv3"
top: "fc7"
param {
lr_mult: 1
decay_mult: 1
}
param {
lr_mult: 2
decay_mult: 0
}
inner_product_param {
num_output: 512
weight_filler {
type: "gaussian"
std: 0.005
}
bias_filler {
type: "constant"
value: 0.1
}
}
}
layer {
name: "relu7"
type: "ReLU"
bottom: "fc7"
top: "fc7"
}
layer {
name: "drop7"
type: "Dropout"
bottom: "fc7"
top: "fc7"
dropout_param {
dropout_ratio: 0.5
}
}
layer {
name: "fc8_retrain_retrain_retrain"
type: "InnerProduct"
bottom: "fc7"
top: "fc8"
param {
lr_mult: 1
decay_mult: 1
}
param {
lr_mult: 2
decay_mult: 0
}
inner_product_param {
num_output: 2
weight_filler {
type: "gaussian"
std: 0.01
}
bias_filler {
type: "constant"
value: 0
}
}
}
layer {
name: "loss"
type: "SoftmaxWithLoss"
bottom: "fc8"
bottom: "label"
top: "loss"
}
I0416 14:08:04.710935  9541 layer_factory.hpp:77] Creating layer train-data
I0416 14:08:04.767141  9541 db_lmdb.cpp:35] Opened lmdb /home/fei/digits/digits/jobs/20180416-002052-9173/train_db
I0416 14:08:04.796375  9541 net.cpp:84] Creating Layer train-data
I0416 14:08:04.796411  9541 net.cpp:380] train-data -> data
I0416 14:08:04.796440  9541 net.cpp:380] train-data -> label
I0416 14:08:04.796456  9541 data_transformer.cpp:25] Loading mean file from: /home/fei/digits/digits/jobs/20180416-002052-9173/mean.binaryproto
I0416 14:08:04.817283  9541 data_layer.cpp:45] output data size: 128,3,110,110
I0416 14:08:04.896605  9541 net.cpp:122] Setting up train-data
I0416 14:08:04.896625  9541 net.cpp:129] Top shape: 128 3 110 110 (4646400)
I0416 14:08:04.896627  9541 net.cpp:129] Top shape: 128 (128)
I0416 14:08:04.896631  9541 net.cpp:137] Memory required for data: 18586112
I0416 14:08:04.896637  9541 layer_factory.hpp:77] Creating layer conv1
I0416 14:08:04.896653  9541 net.cpp:84] Creating Layer conv1
I0416 14:08:04.896657  9541 net.cpp:406] conv1 <- data
I0416 14:08:04.896667  9541 net.cpp:380] conv1 -> conv1
I0416 14:08:05.466835  9541 net.cpp:122] Setting up conv1
I0416 14:08:05.466855  9541 net.cpp:129] Top shape: 128 32 26 26 (2768896)
I0416 14:08:05.466857  9541 net.cpp:137] Memory required for data: 29661696
I0416 14:08:05.466871  9541 layer_factory.hpp:77] Creating layer relu1
I0416 14:08:05.466881  9541 net.cpp:84] Creating Layer relu1
I0416 14:08:05.466883  9541 net.cpp:406] relu1 <- conv1
I0416 14:08:05.466888  9541 net.cpp:367] relu1 -> conv1 (in-place)
I0416 14:08:05.467475  9541 net.cpp:122] Setting up relu1
I0416 14:08:05.467483  9541 net.cpp:129] Top shape: 128 32 26 26 (2768896)
I0416 14:08:05.467485  9541 net.cpp:137] Memory required for data: 40737280
I0416 14:08:05.467489  9541 layer_factory.hpp:77] Creating layer norm1
I0416 14:08:05.467495  9541 net.cpp:84] Creating Layer norm1
I0416 14:08:05.467499  9541 net.cpp:406] norm1 <- conv1
I0416 14:08:05.467502  9541 net.cpp:380] norm1 -> norm1
I0416 14:08:05.467888  9541 net.cpp:122] Setting up norm1
I0416 14:08:05.467895  9541 net.cpp:129] Top shape: 128 32 26 26 (2768896)
I0416 14:08:05.467896  9541 net.cpp:137] Memory required for data: 51812864
I0416 14:08:05.467900  9541 layer_factory.hpp:77] Creating layer pool1
I0416 14:08:05.467907  9541 net.cpp:84] Creating Layer pool1
I0416 14:08:05.467911  9541 net.cpp:406] pool1 <- norm1
I0416 14:08:05.467914  9541 net.cpp:380] pool1 -> pool1
I0416 14:08:05.467948  9541 net.cpp:122] Setting up pool1
I0416 14:08:05.467953  9541 net.cpp:129] Top shape: 128 32 24 24 (2359296)
I0416 14:08:05.467955  9541 net.cpp:137] Memory required for data: 61250048
I0416 14:08:05.467957  9541 layer_factory.hpp:77] Creating layer conv2
I0416 14:08:05.467965  9541 net.cpp:84] Creating Layer conv2
I0416 14:08:05.467967  9541 net.cpp:406] conv2 <- pool1
I0416 14:08:05.467972  9541 net.cpp:380] conv2 -> conv2
I0416 14:08:05.470031  9541 net.cpp:122] Setting up conv2
I0416 14:08:05.470041  9541 net.cpp:129] Top shape: 128 64 11 11 (991232)
I0416 14:08:05.470042  9541 net.cpp:137] Memory required for data: 65214976
I0416 14:08:05.470049  9541 layer_factory.hpp:77] Creating layer relu2
I0416 14:08:05.470053  9541 net.cpp:84] Creating Layer relu2
I0416 14:08:05.470055  9541 net.cpp:406] relu2 <- conv2
I0416 14:08:05.470062  9541 net.cpp:367] relu2 -> conv2 (in-place)
I0416 14:08:05.470697  9541 net.cpp:122] Setting up relu2
I0416 14:08:05.470706  9541 net.cpp:129] Top shape: 128 64 11 11 (991232)
I0416 14:08:05.470708  9541 net.cpp:137] Memory required for data: 69179904
I0416 14:08:05.470710  9541 layer_factory.hpp:77] Creating layer conv3
I0416 14:08:05.470718  9541 net.cpp:84] Creating Layer conv3
I0416 14:08:05.470721  9541 net.cpp:406] conv3 <- conv2
I0416 14:08:05.470726  9541 net.cpp:380] conv3 -> conv3
I0416 14:08:05.472892  9541 net.cpp:122] Setting up conv3
I0416 14:08:05.472903  9541 net.cpp:129] Top shape: 128 64 9 9 (663552)
I0416 14:08:05.472905  9541 net.cpp:137] Memory required for data: 71834112
I0416 14:08:05.472913  9541 layer_factory.hpp:77] Creating layer relu3
I0416 14:08:05.472920  9541 net.cpp:84] Creating Layer relu3
I0416 14:08:05.472923  9541 net.cpp:406] relu3 <- conv3
I0416 14:08:05.472926  9541 net.cpp:367] relu3 -> conv3 (in-place)
I0416 14:08:05.473284  9541 net.cpp:122] Setting up relu3
I0416 14:08:05.473297  9541 net.cpp:129] Top shape: 128 64 9 9 (663552)
I0416 14:08:05.473299  9541 net.cpp:137] Memory required for data: 74488320
I0416 14:08:05.473302  9541 layer_factory.hpp:77] Creating layer fc7
I0416 14:08:05.473309  9541 net.cpp:84] Creating Layer fc7
I0416 14:08:05.473310  9541 net.cpp:406] fc7 <- conv3
I0416 14:08:05.473315  9541 net.cpp:380] fc7 -> fc7
I0416 14:08:05.496670  9541 net.cpp:122] Setting up fc7
I0416 14:08:05.496688  9541 net.cpp:129] Top shape: 128 512 (65536)
I0416 14:08:05.496690  9541 net.cpp:137] Memory required for data: 74750464
I0416 14:08:05.496700  9541 layer_factory.hpp:77] Creating layer relu7
I0416 14:08:05.496708  9541 net.cpp:84] Creating Layer relu7
I0416 14:08:05.496711  9541 net.cpp:406] relu7 <- fc7
I0416 14:08:05.496716  9541 net.cpp:367] relu7 -> fc7 (in-place)
I0416 14:08:05.497432  9541 net.cpp:122] Setting up relu7
I0416 14:08:05.497440  9541 net.cpp:129] Top shape: 128 512 (65536)
I0416 14:08:05.497442  9541 net.cpp:137] Memory required for data: 75012608
I0416 14:08:05.497445  9541 layer_factory.hpp:77] Creating layer drop7
I0416 14:08:05.497452  9541 net.cpp:84] Creating Layer drop7
I0416 14:08:05.497454  9541 net.cpp:406] drop7 <- fc7
I0416 14:08:05.497458  9541 net.cpp:367] drop7 -> fc7 (in-place)
I0416 14:08:05.497511  9541 net.cpp:122] Setting up drop7
I0416 14:08:05.497515  9541 net.cpp:129] Top shape: 128 512 (65536)
I0416 14:08:05.497516  9541 net.cpp:137] Memory required for data: 75274752
I0416 14:08:05.497519  9541 layer_factory.hpp:77] Creating layer fc8_retrain_retrain_retrain
I0416 14:08:05.497524  9541 net.cpp:84] Creating Layer fc8_retrain_retrain_retrain
I0416 14:08:05.497527  9541 net.cpp:406] fc8_retrain_retrain_retrain <- fc7
I0416 14:08:05.497532  9541 net.cpp:380] fc8_retrain_retrain_retrain -> fc8
I0416 14:08:05.497622  9541 net.cpp:122] Setting up fc8_retrain_retrain_retrain
I0416 14:08:05.497627  9541 net.cpp:129] Top shape: 128 2 (256)
I0416 14:08:05.497628  9541 net.cpp:137] Memory required for data: 75275776
I0416 14:08:05.497634  9541 layer_factory.hpp:77] Creating layer loss
I0416 14:08:05.497639  9541 net.cpp:84] Creating Layer loss
I0416 14:08:05.497642  9541 net.cpp:406] loss <- fc8
I0416 14:08:05.497644  9541 net.cpp:406] loss <- label
I0416 14:08:05.497648  9541 net.cpp:380] loss -> loss
I0416 14:08:05.497658  9541 layer_factory.hpp:77] Creating layer loss
…
I0416 14:08:05.498502  9541 solver.cpp:190] Creating test net (#0) specified by net file: train_val.prototxt
I0416 14:08:05.498518  9541 net.cpp:294] The NetState phase (1) differed from the phase (0) specified by a rule in layer train-data
I0416 14:08:05.498603  9541 net.cpp:51] Initializing net from parameters:
state {
phase: TEST
}
layer {
name: "val-data"
type: "Data"
top: "data"
top: "label"
include {
phase: TEST
}
transform_param {
crop_size: 110
mean_file: "/home/fei/digits/digits/jobs/20180416-002052-9173/mean.binaryproto"
}
data_param {
source: "/home/fei/digits/digits/jobs/20180416-002052-9173/val_db"
batch_size: 32
backend: LMDB
}
}
layer {
name: "conv1"
type: "Convolution"
bottom: "data"
top: "conv1"
param {
lr_mult: 1
decay_mult: 1
}
param {
lr_mult: 2
decay_mult: 0
}
convolution_param {
num_output: 32
kernel_size: 8
stride: 4
weight_filler {
type: "gaussian"
std: 0.01
}
bias_filler {
type: "constant"
value: 0
}
}
}
layer {
name: "relu1"
type: "ReLU"
bottom: "conv1"
top: "conv1"
}
layer {
name: "norm1"
type: "LRN"
bottom: "conv1"
top: "norm1"
lrn_param {
local_size: 5
alpha: 0.0001
beta: 0.75
}
}
layer {
name: "pool1"
type: "Pooling"
bottom: "norm1"
top: "pool1"
pooling_param {
pool: MAX
kernel_size: 3
stride: 1
}
}
layer {
name: "conv2"
type: "Convolution"
bottom: "pool1"
top: "conv2"
param {
lr_mult: 1
decay_mult: 1
}
param {
lr_mult: 2
decay_mult: 0
}
convolution_param {
num_output: 64
pad: 0
kernel_size: 4
stride: 2
weight_filler {
type: "gaussian"
std: 0.01
}
bias_filler {
type: "constant"
value: 0
}
}
}
layer {
name: "relu2"
type: "ReLU"
bottom: "conv2"
top: "conv2"
}
layer {
name: "conv3"
type: "Convolution"
bottom: "conv2"
top: "conv3"
param {
lr_mult: 1
decay_mult: 1
}
param {
lr_mult: 2
decay_mult: 0
}
convolution_param {
num_output: 64
pad: 0
kernel_size: 3
stride: 1
weight_filler {
type: "gaussian"
std: 0.01
}
bias_filler {
type: "constant"
value: 0
}
}
}
layer {
name: "relu3"
type: "ReLU"
bottom: "conv3"
top: "conv3"
}
layer {
name: "fc7"
type: "InnerProduct"
bottom: "conv3"
top: "fc7"
param {
lr_mult: 1
decay_mult: 1
}
param {
lr_mult: 2
decay_mult: 0
}
inner_product_param {
num_output: 512
weight_filler {
type: "gaussian"
std: 0.005
}
bias_filler {
type: "constant"
value: 0.1
}
}
}
layer {
name: "relu7"
type: "ReLU"
bottom: "fc7"
top: "fc7"
}
layer {
name: "drop7"
type: "Dropout"
bottom: "fc7"
top: "fc7"
dropout_param {
dropout_ratio: 0.5
}
}
layer {
name: "fc8_retrain_retrain_retrain"
type: "InnerProduct"
bottom: "fc7"
top: "fc8"
param {
lr_mult: 1
decay_mult: 1
}
param {
lr_mult: 2
decay_mult: 0
}
inner_product_param {
num_output: 2
weight_filler {
type: "gaussian"
std: 0.01
}
bias_filler {
type: "constant"
value: 0
}
}
}
layer {
name: "accuracy"
type: "Accuracy"
bottom: "fc8"
bottom: "label"
top: "accuracy"
include {
phase: TEST
}
}
layer {
name: "loss"
type: "SoftmaxWithLoss"
bottom: "fc8"
bottom: "label"
top: "loss"
}
I0416 14:08:05.498658  9541 layer_factory.hpp:77] Creating layer val-data
I0416 14:08:05.545002  9541 db_lmdb.cpp:35] Opened lmdb /home/fei/digits/digits/jobs/20180416-002052-9173/val_db
I0416 14:08:05.561339  9541 net.cpp:84] Creating Layer val-data
I0416 14:08:05.561373  9541 net.cpp:380] val-data -> data
I0416 14:08:05.561425  9541 net.cpp:380] val-data -> label
I0416 14:08:05.561437  9541 data_transformer.cpp:25] Loading mean file from: /home/fei/digits/digits/jobs/20180416-002052-9173/mean.binaryproto
I0416 14:08:05.562924  9541 data_layer.cpp:45] output data size: 32,3,110,110
I0416 14:08:05.584388  9541 net.cpp:122] Setting up val-data
I0416 14:08:05.584419  9541 net.cpp:129] Top shape: 32 3 110 110 (1161600)
I0416 14:08:05.584426  9541 net.cpp:129] Top shape: 32 (32)
I0416 14:08:05.584430  9541 net.cpp:137] Memory required for data: 4646528
I0416 14:08:05.584439  9541 layer_factory.hpp:77] Creating layer label_val-data_1_split
I0416 14:08:05.584455  9541 net.cpp:84] Creating Layer label_val-data_1_split
I0416 14:08:05.584460  9541 net.cpp:406] label_val-data_1_split <- label
I0416 14:08:05.584470  9541 net.cpp:380] label_val-data_1_split -> label_val-data_1_split_0
I0416 14:08:05.584482  9541 net.cpp:380] label_val-data_1_split -> label_val-data_1_split_1
I0416 14:08:05.584566  9541 net.cpp:122] Setting up label_val-data_1_split
I0416 14:08:05.584574  9541 net.cpp:129] Top shape: 32 (32)
I0416 14:08:05.584579  9541 net.cpp:129] Top shape: 32 (32)
I0416 14:08:05.584583  9541 net.cpp:137] Memory required for data: 4646784
I0416 14:08:05.584587  9541 layer_factory.hpp:77] Creating layer conv1
I0416 14:08:05.584602  9541 net.cpp:84] Creating Layer conv1
I0416 14:08:05.584607  9541 net.cpp:406] conv1 <- data
I0416 14:08:05.584615  9541 net.cpp:380] conv1 -> conv1
I0416 14:08:05.591281  9541 net.cpp:122] Setting up conv1
I0416 14:08:05.591305  9541 net.cpp:129] Top shape: 32 32 26 26 (692224)
I0416 14:08:05.591310  9541 net.cpp:137] Memory required for data: 7415680
I0416 14:08:05.591332  9541 layer_factory.hpp:77] Creating layer relu1
I0416 14:08:05.591344  9541 net.cpp:84] Creating Layer relu1
I0416 14:08:05.591349  9541 net.cpp:406] relu1 <- conv1
I0416 14:08:05.591356  9541 net.cpp:367] relu1 -> conv1 (in-place)
I0416 14:08:05.592110  9541 net.cpp:122] Setting up relu1
I0416 14:08:05.592123  9541 net.cpp:129] Top shape: 32 32 26 26 (692224)
I0416 14:08:05.592128  9541 net.cpp:137] Memory required for data: 10184576
I0416 14:08:05.592133  9541 layer_factory.hpp:77] Creating layer norm1
I0416 14:08:05.592147  9541 net.cpp:84] Creating Layer norm1
I0416 14:08:05.592152  9541 net.cpp:406] norm1 <- conv1
I0416 14:08:05.592164  9541 net.cpp:380] norm1 -> norm1
I0416 14:08:05.593255  9541 net.cpp:122] Setting up norm1
I0416 14:08:05.593274  9541 net.cpp:129] Top shape: 32 32 26 26 (692224)
I0416 14:08:05.593278  9541 net.cpp:137] Memory required for data: 12953472
I0416 14:08:05.593283  9541 layer_factory.hpp:77] Creating layer pool1
I0416 14:08:05.593295  9541 net.cpp:84] Creating Layer pool1
I0416 14:08:05.593300  9541 net.cpp:406] pool1 <- norm1
I0416 14:08:05.593307  9541 net.cpp:380] pool1 -> pool1
I0416 14:08:05.593370  9541 net.cpp:122] Setting up pool1
I0416 14:08:05.593379  9541 net.cpp:129] Top shape: 32 32 24 24 (589824)
I0416 14:08:05.593384  9541 net.cpp:137] Memory required for data: 15312768
I0416 14:08:05.593387  9541 layer_factory.hpp:77] Creating layer conv2
I0416 14:08:05.593402  9541 net.cpp:84] Creating Layer conv2
I0416 14:08:05.593407  9541 net.cpp:406] conv2 <- pool1
I0416 14:08:05.593418  9541 net.cpp:380] conv2 -> conv2
I0416 14:08:05.597254  9541 net.cpp:122] Setting up conv2
I0416 14:08:05.597273  9541 net.cpp:129] Top shape: 32 64 11 11 (247808)
I0416 14:08:05.597278  9541 net.cpp:137] Memory required for data: 16304000
I0416 14:08:05.597293  9541 layer_factory.hpp:77] Creating layer relu2
I0416 14:08:05.597302  9541 net.cpp:84] Creating Layer relu2
I0416 14:08:05.597307  9541 net.cpp:406] relu2 <- conv2
I0416 14:08:05.597317  9541 net.cpp:367] relu2 -> conv2 (in-place)
I0416 14:08:05.598031  9541 net.cpp:122] Setting up relu2
I0416 14:08:05.598048  9541 net.cpp:129] Top shape: 32 64 11 11 (247808)
I0416 14:08:05.598052  9541 net.cpp:137] Memory required for data: 17295232
I0416 14:08:05.598057  9541 layer_factory.hpp:77] Creating layer conv3
I0416 14:08:05.598076  9541 net.cpp:84] Creating Layer conv3
I0416 14:08:05.598115  9541 net.cpp:406] conv3 <- conv2
I0416 14:08:05.598129  9541 net.cpp:380] conv3 -> conv3
I0416 14:08:05.603137  9541 net.cpp:122] Setting up conv3
I0416 14:08:05.603159  9541 net.cpp:129] Top shape: 32 64 9 9 (165888)
I0416 14:08:05.603164  9541 net.cpp:137] Memory required for data: 17958784
I0416 14:08:05.603181  9541 layer_factory.hpp:77] Creating layer relu3
I0416 14:08:05.603191  9541 net.cpp:84] Creating Layer relu3
I0416 14:08:05.603196  9541 net.cpp:406] relu3 <- conv3
I0416 14:08:05.603202  9541 net.cpp:367] relu3 -> conv3 (in-place)
I0416 14:08:05.604064  9541 net.cpp:122] Setting up relu3
I0416 14:08:05.604077  9541 net.cpp:129] Top shape: 32 64 9 9 (165888)
I0416 14:08:05.604081  9541 net.cpp:137] Memory required for data: 18622336
I0416 14:08:05.604085  9541 layer_factory.hpp:77] Creating layer fc7
I0416 14:08:05.604097  9541 net.cpp:84] Creating Layer fc7
I0416 14:08:05.604101  9541 net.cpp:406] fc7 <- conv3
I0416 14:08:05.604109  9541 net.cpp:380] fc7 -> fc7
I0416 14:08:05.628818  9541 net.cpp:122] Setting up fc7
I0416 14:08:05.628834  9541 net.cpp:129] Top shape: 32 512 (16384)
I0416 14:08:05.628836  9541 net.cpp:137] Memory required for data: 18687872
I0416 14:08:05.628842  9541 layer_factory.hpp:77] Creating layer relu7
I0416 14:08:05.628849  9541 net.cpp:84] Creating Layer relu7
I0416 14:08:05.628852  9541 net.cpp:406] relu7 <- fc7
I0416 14:08:05.628857  9541 net.cpp:367] relu7 -> fc7 (in-place)
I0416 14:08:05.629518  9541 net.cpp:122] Setting up relu7
I0416 14:08:05.629525  9541 net.cpp:129] Top shape: 32 512 (16384)
I0416 14:08:05.629528  9541 net.cpp:137] Memory required for data: 18753408
I0416 14:08:05.629530  9541 layer_factory.hpp:77] Creating layer drop7
I0416 14:08:05.629536  9541 net.cpp:84] Creating Layer drop7
I0416 14:08:05.629539  9541 net.cpp:406] drop7 <- fc7
I0416 14:08:05.629544  9541 net.cpp:367] drop7 -> fc7 (in-place)
I0416 14:08:05.629565  9541 net.cpp:122] Setting up drop7
I0416 14:08:05.629568  9541 net.cpp:129] Top shape: 32 512 (16384)
I0416 14:08:05.629570  9541 net.cpp:137] Memory required for data: 18818944
I0416 14:08:05.629572  9541 layer_factory.hpp:77] Creating layer fc8_retrain_retrain_retrain
I0416 14:08:05.629578  9541 net.cpp:84] Creating Layer fc8_retrain_retrain_retrain
I0416 14:08:05.629580  9541 net.cpp:406] fc8_retrain_retrain_retrain <- fc7
I0416 14:08:05.629585  9541 net.cpp:380] fc8_retrain_retrain_retrain -> fc8
I0416 14:08:05.629680  9541 net.cpp:122] Setting up fc8_retrain_retrain_retrain
I0416 14:08:05.629684  9541 net.cpp:129] Top shape: 32 2 (64)
I0416 14:08:05.629686  9541 net.cpp:137] Memory required for data: 18819200
I0416 14:08:05.629694  9541 layer_factory.hpp:77] Creating layer fc8_fc8_retrain_retrain_retrain_0_split
I0416 14:08:05.629699  9541 net.cpp:84] Creating Layer fc8_fc8_retrain_retrain_retrain_0_split
I0416 14:08:05.629701  9541 net.cpp:406] fc8_fc8_retrain_retrain_retrain_0_split <- fc8
I0416 14:08:05.629707  9541 net.cpp:380] fc8_fc8_retrain_retrain_retrain_0_split -> fc8_fc8_retrain_retrain_retrain_0_split_0
I0416 14:08:05.629712  9541 net.cpp:380] fc8_fc8_retrain_retrain_retrain_0_split -> fc8_fc8_retrain_retrain_retrain_0_split_1
I0416 14:08:05.629743  9541 net.cpp:122] Setting up fc8_fc8_retrain_retrain_retrain_0_split
I0416 14:08:05.629746  9541 net.cpp:129] Top shape: 32 2 (64)
I0416 14:08:05.629750  9541 net.cpp:129] Top shape: 32 2 (64)
I0416 14:08:05.629750  9541 net.cpp:137] Memory required for data: 18819712
I0416 14:08:05.629752  9541 layer_factory.hpp:77] Creating layer accuracy
I0416 14:08:05.629758  9541 net.cpp:84] Creating Layer accuracy
I0416 14:08:05.629760  9541 net.cpp:406] accuracy <- fc8_fc8_retrain_retrain_retrain_0_split_0
I0416 14:08:05.629763  9541 net.cpp:406] accuracy <- label_val-data_1_split_0
I0416 14:08:05.629767  9541 net.cpp:380] accuracy -> accuracy
…
