…
I0426 17:46:40.340003 23884 net.cpp:294] The NetState phase (0) differed from the phase (1) specified by a rule in layer accuracy
I0426 17:46:40.340169 23884 net.cpp:51] Initializing net from parameters:
state {
phase: TRAIN
level: 0
stage: ""
}
layer {
name: "train-data"
type: "Data"
top: "data"
top: "label"
include {
phase: TRAIN
}
transform_param {
mirror: true
crop_size: 110
mean_file: "/home/fei/digits/digits/jobs/20180415-214447-7028/mean.binaryproto"
}
data_param {
source: "/home/fei/digits/digits/jobs/20180415-214447-7028/train_db"
batch_size: 128
backend: LMDB
}
}
layer {
name: "conv1"
type: "Convolution"
bottom: "data"
top: "conv1"
param {
lr_mult: 1
decay_mult: 1
}
param {
lr_mult: 2
decay_mult: 0
}
convolution_param {
num_output: 32
kernel_size: 8
stride: 4
weight_filler {
type: "gaussian"
std: 0.01
}
bias_filler {
type: "constant"
value: 0
}
}
}
layer {
name: "relu1"
type: "ReLU"
bottom: "conv1"
top: "conv1"
}
layer {
name: "norm1"
type: "LRN"
bottom: "conv1"
top: "norm1"
lrn_param {
local_size: 5
alpha: 0.0001
beta: 0.75
}
}
layer {
name: "pool1"
type: "Pooling"
bottom: "norm1"
top: "pool1"
pooling_param {
pool: MAX
kernel_size: 3
stride: 1
}
}
layer {
name: "conv2"
type: "Convolution"
bottom: "pool1"
top: "conv2"
param {
lr_mult: 1
decay_mult: 1
}
param {
lr_mult: 2
decay_mult: 0
}
convolution_param {
num_output: 64
pad: 0
kernel_size: 4
stride: 2
weight_filler {
type: "gaussian"
std: 0.01
}
bias_filler {
type: "constant"
value: 0
}
}
}
layer {
name: "relu2"
type: "ReLU"
bottom: "conv2"
top: "conv2"
}
layer {
name: "conv3"
type: "Convolution"
bottom: "conv2"
top: "conv3"
param {
lr_mult: 1
decay_mult: 1
}
param {
lr_mult: 2
decay_mult: 0
}
convolution_param {
num_output: 64
pad: 0
kernel_size: 3
stride: 1
weight_filler {
type: "gaussian"
std: 0.01
}
bias_filler {
type: "constant"
value: 0
}
}
}
layer {
name: "relu3"
type: "ReLU"
bottom: "conv3"
top: "conv3"
}
layer {
name: "fc7"
type: "InnerProduct"
bottom: "conv3"
top: "fc7"
param {
lr_mult: 1
decay_mult: 1
}
param {
lr_mult: 2
decay_mult: 0
}
inner_product_param {
num_output: 512
weight_filler {
type: "gaussian"
std: 0.005
}
bias_filler {
type: "constant"
value: 0.1
}
}
}
layer {
name: "relu7"
type: "ReLU"
bottom: "fc7"
top: "fc7"
}
layer {
name: "drop7"
type: "Dropout"
bottom: "fc7"
top: "fc7"
dropout_param {
dropout_ratio: 0.5
}
}
layer {
name: "fc8_retrain_retrain_retrain_retrain_retrain"
type: "InnerProduct"
bottom: "fc7"
top: "fc8"
param {
lr_mult: 1
decay_mult: 1
}
param {
lr_mult: 2
decay_mult: 0
}
inner_product_param {
num_output: 5
weight_filler {
type: "gaussian"
std: 0.01
}
bias_filler {
type: "constant"
value: 0
}
}
}
layer {
name: "loss"
type: "SoftmaxWithLoss"
bottom: "fc8"
bottom: "label"
top: "loss"
}
I0426 17:46:40.340314 23884 layer_factory.hpp:77] Creating layer train-data
I0426 17:46:40.700414 23884 db_lmdb.cpp:35] Opened lmdb /home/fei/digits/digits/jobs/20180415-214447-7028/train_db
I0426 17:46:40.970993 23884 net.cpp:84] Creating Layer train-data
I0426 17:46:40.971031 23884 net.cpp:380] train-data -> data
I0426 17:46:40.971067 23884 net.cpp:380] train-data -> label
I0426 17:46:40.971088 23884 data_transformer.cpp:25] Loading mean file from: /home/fei/digits/digits/jobs/20180415-214447-7028/mean.binaryproto
I0426 17:46:40.974028 23884 data_layer.cpp:45] output data size: 128,3,110,110
I0426 17:46:41.079030 23884 net.cpp:122] Setting up train-data
I0426 17:46:41.079061 23884 net.cpp:129] Top shape: 128 3 110 110 (4646400)
I0426 17:46:41.079066 23884 net.cpp:129] Top shape: 128 (128)
I0426 17:46:41.079071 23884 net.cpp:137] Memory required for data: 18586112
I0426 17:46:41.079082 23884 layer_factory.hpp:77] Creating layer conv1
I0426 17:46:41.079107 23884 net.cpp:84] Creating Layer conv1
I0426 17:46:41.079113 23884 net.cpp:406] conv1 <- data
I0426 17:46:41.079129 23884 net.cpp:380] conv1 -> conv1
I0426 17:46:41.937814 23884 net.cpp:122] Setting up conv1
I0426 17:46:41.937866 23884 net.cpp:129] Top shape: 128 32 26 26 (2768896)
I0426 17:46:41.937872 23884 net.cpp:137] Memory required for data: 29661696
I0426 17:46:41.937911 23884 layer_factory.hpp:77] Creating layer relu1
I0426 17:46:41.937930 23884 net.cpp:84] Creating Layer relu1
I0426 17:46:41.937937 23884 net.cpp:406] relu1 <- conv1
I0426 17:46:41.937947 23884 net.cpp:367] relu1 -> conv1 (in-place)
I0426 17:46:41.939482 23884 net.cpp:122] Setting up relu1
I0426 17:46:41.939535 23884 net.cpp:129] Top shape: 128 32 26 26 (2768896)
I0426 17:46:41.939540 23884 net.cpp:137] Memory required for data: 40737280
I0426 17:46:41.939551 23884 layer_factory.hpp:77] Creating layer norm1
I0426 17:46:41.939577 23884 net.cpp:84] Creating Layer norm1
I0426 17:46:41.939584 23884 net.cpp:406] norm1 <- conv1
I0426 17:46:41.939595 23884 net.cpp:380] norm1 -> norm1
I0426 17:46:41.940452 23884 net.cpp:122] Setting up norm1
I0426 17:46:41.940469 23884 net.cpp:129] Top shape: 128 32 26 26 (2768896)
I0426 17:46:41.940474 23884 net.cpp:137] Memory required for data: 51812864
I0426 17:46:41.940479 23884 layer_factory.hpp:77] Creating layer pool1
I0426 17:46:41.940503 23884 net.cpp:84] Creating Layer pool1
I0426 17:46:41.940510 23884 net.cpp:406] pool1 <- norm1
I0426 17:46:41.940517 23884 net.cpp:380] pool1 -> pool1
I0426 17:46:41.940582 23884 net.cpp:122] Setting up pool1
I0426 17:46:41.940589 23884 net.cpp:129] Top shape: 128 32 24 24 (2359296)
I0426 17:46:41.940593 23884 net.cpp:137] Memory required for data: 61250048
I0426 17:46:41.940598 23884 layer_factory.hpp:77] Creating layer conv2
I0426 17:46:41.940609 23884 net.cpp:84] Creating Layer conv2
I0426 17:46:41.940614 23884 net.cpp:406] conv2 <- pool1
I0426 17:46:41.940621 23884 net.cpp:380] conv2 -> conv2
I0426 17:46:41.944763 23884 net.cpp:122] Setting up conv2
I0426 17:46:41.944797 23884 net.cpp:129] Top shape: 128 64 11 11 (991232)
I0426 17:46:41.944802 23884 net.cpp:137] Memory required for data: 65214976
I0426 17:46:41.944829 23884 layer_factory.hpp:77] Creating layer relu2
I0426 17:46:41.944844 23884 net.cpp:84] Creating Layer relu2
I0426 17:46:41.944849 23884 net.cpp:406] relu2 <- conv2
I0426 17:46:41.944859 23884 net.cpp:367] relu2 -> conv2 (in-place)
I0426 17:46:41.945824 23884 net.cpp:122] Setting up relu2
I0426 17:46:41.945842 23884 net.cpp:129] Top shape: 128 64 11 11 (991232)
I0426 17:46:41.945847 23884 net.cpp:137] Memory required for data: 69179904
I0426 17:46:41.945852 23884 layer_factory.hpp:77] Creating layer conv3
I0426 17:46:41.945869 23884 net.cpp:84] Creating Layer conv3
I0426 17:46:41.945875 23884 net.cpp:406] conv3 <- conv2
I0426 17:46:41.945888 23884 net.cpp:380] conv3 -> conv3
I0426 17:46:41.950347 23884 net.cpp:122] Setting up conv3
I0426 17:46:41.950372 23884 net.cpp:129] Top shape: 128 64 9 9 (663552)
I0426 17:46:41.950377 23884 net.cpp:137] Memory required for data: 71834112
I0426 17:46:41.950393 23884 layer_factory.hpp:77] Creating layer relu3
I0426 17:46:41.950407 23884 net.cpp:84] Creating Layer relu3
I0426 17:46:41.950412 23884 net.cpp:406] relu3 <- conv3
I0426 17:46:41.950422 23884 net.cpp:367] relu3 -> conv3 (in-place)
I0426 17:46:41.951071 23884 net.cpp:122] Setting up relu3
I0426 17:46:41.951088 23884 net.cpp:129] Top shape: 128 64 9 9 (663552)
I0426 17:46:41.951092 23884 net.cpp:137] Memory required for data: 74488320
I0426 17:46:41.951097 23884 layer_factory.hpp:77] Creating layer fc7
I0426 17:46:41.951107 23884 net.cpp:84] Creating Layer fc7
I0426 17:46:41.951112 23884 net.cpp:406] fc7 <- conv3
I0426 17:46:41.951122 23884 net.cpp:380] fc7 -> fc7
I0426 17:46:42.024806 23884 net.cpp:122] Setting up fc7
I0426 17:46:42.024833 23884 net.cpp:129] Top shape: 128 512 (65536)
I0426 17:46:42.024838 23884 net.cpp:137] Memory required for data: 74750464
I0426 17:46:42.024850 23884 layer_factory.hpp:77] Creating layer relu7
I0426 17:46:42.024861 23884 net.cpp:84] Creating Layer relu7
I0426 17:46:42.024866 23884 net.cpp:406] relu7 <- fc7
I0426 17:46:42.024874 23884 net.cpp:367] relu7 -> fc7 (in-place)
I0426 17:46:42.025954 23884 net.cpp:122] Setting up relu7
I0426 17:46:42.026020 23884 net.cpp:129] Top shape: 128 512 (65536)
I0426 17:46:42.026022 23884 net.cpp:137] Memory required for data: 75012608
I0426 17:46:42.026028 23884 layer_factory.hpp:77] Creating layer drop7
I0426 17:46:42.026037 23884 net.cpp:84] Creating Layer drop7
I0426 17:46:42.026042 23884 net.cpp:406] drop7 <- fc7
I0426 17:46:42.026051 23884 net.cpp:367] drop7 -> fc7 (in-place)
I0426 17:46:42.026099 23884 net.cpp:122] Setting up drop7
I0426 17:46:42.026108 23884 net.cpp:129] Top shape: 128 512 (65536)
I0426 17:46:42.026111 23884 net.cpp:137] Memory required for data: 75274752
I0426 17:46:42.026115 23884 layer_factory.hpp:77] Creating layer fc8_retrain_retrain_retrain_retrain_retrain
I0426 17:46:42.026124 23884 net.cpp:84] Creating Layer fc8_retrain_retrain_retrain_retrain_retrain
I0426 17:46:42.026127 23884 net.cpp:406] fc8_retrain_retrain_retrain_retrain_retrain <- fc7
I0426 17:46:42.026136 23884 net.cpp:380] fc8_retrain_retrain_retrain_retrain_retrain -> fc8
I0426 17:46:42.027046 23884 net.cpp:122] Setting up fc8_retrain_retrain_retrain_retrain_retrain
I0426 17:46:42.027068 23884 net.cpp:129] Top shape: 128 5 (640)
I0426 17:46:42.027072 23884 net.cpp:137] Memory required for data: 75277312
I0426 17:46:42.027087 23884 layer_factory.hpp:77] Creating layer loss
I0426 17:46:42.027097 23884 net.cpp:84] Creating Layer loss
I0426 17:46:42.027101 23884 net.cpp:406] loss <- fc8
I0426 17:46:42.027108 23884 net.cpp:406] loss <- label
I0426 17:46:42.027119 23884 net.cpp:380] loss -> loss
I0426 17:46:42.027132 23884 layer_factory.hpp:77] Creating layer loss
…
I0426 17:46:42.029148 23884 solver.cpp:190] Creating test net (#0) specified by net file: train_val.prototxt
I0426 17:46:42.029181 23884 net.cpp:294] The NetState phase (1) differed from the phase (0) specified by a rule in layer train-data
I0426 17:46:42.029345 23884 net.cpp:51] Initializing net from parameters:
state {
phase: TEST
}
layer {
name: "val-data"
type: "Data"
top: "data"
top: "label"
include {
phase: TEST
}
transform_param {
crop_size: 110
mean_file: "/home/fei/digits/digits/jobs/20180415-214447-7028/mean.binaryproto"
}
data_param {
source: "/home/fei/digits/digits/jobs/20180415-214447-7028/val_db"
batch_size: 32
backend: LMDB
}
}
layer {
name: "conv1"
type: "Convolution"
bottom: "data"
top: "conv1"
param {
lr_mult: 1
decay_mult: 1
}
param {
lr_mult: 2
decay_mult: 0
}
convolution_param {
num_output: 32
kernel_size: 8
stride: 4
weight_filler {
type: "gaussian"
std: 0.01
}
bias_filler {
type: "constant"
value: 0
}
}
}
layer {
name: "relu1"
type: "ReLU"
bottom: "conv1"
top: "conv1"
}
layer {
name: "norm1"
type: "LRN"
bottom: "conv1"
top: "norm1"
lrn_param {
local_size: 5
alpha: 0.0001
beta: 0.75
}
}
layer {
name: "pool1"
type: "Pooling"
bottom: "norm1"
top: "pool1"
pooling_param {
pool: MAX
kernel_size: 3
stride: 1
}
}
layer {
name: "conv2"
type: "Convolution"
bottom: "pool1"
top: "conv2"
param {
lr_mult: 1
decay_mult: 1
}
param {
lr_mult: 2
decay_mult: 0
}
convolution_param {
num_output: 64
pad: 0
kernel_size: 4
stride: 2
weight_filler {
type: "gaussian"
std: 0.01
}
bias_filler {
type: "constant"
value: 0
}
}
}
layer {
name: "relu2"
type: "ReLU"
bottom: "conv2"
top: "conv2"
}
layer {
name: "conv3"
type: "Convolution"
bottom: "conv2"
top: "conv3"
param {
lr_mult: 1
decay_mult: 1
}
param {
lr_mult: 2
decay_mult: 0
}
convolution_param {
num_output: 64
pad: 0
kernel_size: 3
stride: 1
weight_filler {
type: "gaussian"
std: 0.01
}
bias_filler {
type: "constant"
value: 0
}
}
}
layer {
name: "relu3"
type: "ReLU"
bottom: "conv3"
top: "conv3"
}
layer {
name: "fc7"
type: "InnerProduct"
bottom: "conv3"
top: "fc7"
param {
lr_mult: 1
decay_mult: 1
}
param {
lr_mult: 2
decay_mult: 0
}
inner_product_param {
num_output: 512
weight_filler {
type: "gaussian"
std: 0.005
}
bias_filler {
type: "constant"
value: 0.1
}
}
}
layer {
name: "relu7"
type: "ReLU"
bottom: "fc7"
top: "fc7"
}
layer {
name: "drop7"
type: "Dropout"
bottom: "fc7"
top: "fc7"
dropout_param {
dropout_ratio: 0.5
}
}
layer {
name: "fc8_retrain_retrain_retrain_retrain_retrain"
type: "InnerProduct"
bottom: "fc7"
top: "fc8"
param {
lr_mult: 1
decay_mult: 1
}
param {
lr_mult: 2
decay_mult: 0
}
inner_product_param {
num_output: 5
weight_filler {
type: "gaussian"
std: 0.01
}
bias_filler {
type: "constant"
value: 0
}
}
}
layer {
name: "accuracy"
type: "Accuracy"
bottom: "fc8"
bottom: "label"
top: "accuracy"
include {
phase: TEST
}
}
layer {
name: "loss"
type: "SoftmaxWithLoss"
bottom: "fc8"
bottom: "label"
top: "loss"
}
I0426 17:46:42.029466 23884 layer_factory.hpp:77] Creating layer val-data
I0426 17:46:42.125272 23884 db_lmdb.cpp:35] Opened lmdb /home/fei/digits/digits/jobs/20180415-214447-7028/val_db
I0426 17:46:42.231007 23884 net.cpp:84] Creating Layer val-data
I0426 17:46:42.231043 23884 net.cpp:380] val-data -> data
I0426 17:46:42.231061 23884 net.cpp:380] val-data -> label
I0426 17:46:42.231073 23884 data_transformer.cpp:25] Loading mean file from: /home/fei/digits/digits/jobs/20180415-214447-7028/mean.binaryproto
I0426 17:46:42.242765 23884 data_layer.cpp:45] output data size: 32,3,110,110
I0426 17:46:42.272231 23884 net.cpp:122] Setting up val-data
I0426 17:46:42.272256 23884 net.cpp:129] Top shape: 32 3 110 110 (1161600)
I0426 17:46:42.272264 23884 net.cpp:129] Top shape: 32 (32)
I0426 17:46:42.272267 23884 net.cpp:137] Memory required for data: 4646528
I0426 17:46:42.272274 23884 layer_factory.hpp:77] Creating layer label_val-data_1_split
I0426 17:46:42.272287 23884 net.cpp:84] Creating Layer label_val-data_1_split
I0426 17:46:42.272294 23884 net.cpp:406] label_val-data_1_split <- label
I0426 17:46:42.272301 23884 net.cpp:380] label_val-data_1_split -> label_val-data_1_split_0
I0426 17:46:42.272313 23884 net.cpp:380] label_val-data_1_split -> label_val-data_1_split_1
I0426 17:46:42.277258 23884 net.cpp:122] Setting up label_val-data_1_split
I0426 17:46:42.277278 23884 net.cpp:129] Top shape: 32 (32)
I0426 17:46:42.277283 23884 net.cpp:129] Top shape: 32 (32)
I0426 17:46:42.277287 23884 net.cpp:137] Memory required for data: 4646784
I0426 17:46:42.277293 23884 layer_factory.hpp:77] Creating layer conv1
I0426 17:46:42.277312 23884 net.cpp:84] Creating Layer conv1
I0426 17:46:42.277318 23884 net.cpp:406] conv1 <- data
I0426 17:46:42.277326 23884 net.cpp:380] conv1 -> conv1
I0426 17:46:42.280241 23884 net.cpp:122] Setting up conv1
I0426 17:46:42.280256 23884 net.cpp:129] Top shape: 32 32 26 26 (692224)
I0426 17:46:42.280259 23884 net.cpp:137] Memory required for data: 7415680
I0426 17:46:42.280273 23884 layer_factory.hpp:77] Creating layer relu1
I0426 17:46:42.280282 23884 net.cpp:84] Creating Layer relu1
I0426 17:46:42.280287 23884 net.cpp:406] relu1 <- conv1
I0426 17:46:42.280294 23884 net.cpp:367] relu1 -> conv1 (in-place)
I0426 17:46:42.284318 23884 net.cpp:122] Setting up relu1
I0426 17:46:42.284341 23884 net.cpp:129] Top shape: 32 32 26 26 (692224)
I0426 17:46:42.284346 23884 net.cpp:137] Memory required for data: 10184576
I0426 17:46:42.284353 23884 layer_factory.hpp:77] Creating layer norm1
I0426 17:46:42.284370 23884 net.cpp:84] Creating Layer norm1
I0426 17:46:42.284376 23884 net.cpp:406] norm1 <- conv1
I0426 17:46:42.284386 23884 net.cpp:380] norm1 -> norm1
I0426 17:46:42.285492 23884 net.cpp:122] Setting up norm1
I0426 17:46:42.285506 23884 net.cpp:129] Top shape: 32 32 26 26 (692224)
I0426 17:46:42.285511 23884 net.cpp:137] Memory required for data: 12953472
I0426 17:46:42.285516 23884 layer_factory.hpp:77] Creating layer pool1
I0426 17:46:42.285524 23884 net.cpp:84] Creating Layer pool1
I0426 17:46:42.285529 23884 net.cpp:406] pool1 <- norm1
I0426 17:46:42.285537 23884 net.cpp:380] pool1 -> pool1
I0426 17:46:42.285589 23884 net.cpp:122] Setting up pool1
I0426 17:46:42.285598 23884 net.cpp:129] Top shape: 32 32 24 24 (589824)
I0426 17:46:42.285601 23884 net.cpp:137] Memory required for data: 15312768
I0426 17:46:42.285605 23884 layer_factory.hpp:77] Creating layer conv2
I0426 17:46:42.285619 23884 net.cpp:84] Creating Layer conv2
I0426 17:46:42.285622 23884 net.cpp:406] conv2 <- pool1
I0426 17:46:42.285629 23884 net.cpp:380] conv2 -> conv2
I0426 17:46:42.295544 23884 net.cpp:122] Setting up conv2
I0426 17:46:42.295568 23884 net.cpp:129] Top shape: 32 64 11 11 (247808)
I0426 17:46:42.295572 23884 net.cpp:137] Memory required for data: 16304000
I0426 17:46:42.295589 23884 layer_factory.hpp:77] Creating layer relu2
I0426 17:46:42.295608 23884 net.cpp:84] Creating Layer relu2
I0426 17:46:42.295614 23884 net.cpp:406] relu2 <- conv2
I0426 17:46:42.295621 23884 net.cpp:367] relu2 -> conv2 (in-place)
I0426 17:46:42.296300 23884 net.cpp:122] Setting up relu2
I0426 17:46:42.296314 23884 net.cpp:129] Top shape: 32 64 11 11 (247808)
I0426 17:46:42.296319 23884 net.cpp:137] Memory required for data: 17295232
I0426 17:46:42.299455 23884 layer_factory.hpp:77] Creating layer conv3
I0426 17:46:42.299489 23884 net.cpp:84] Creating Layer conv3
I0426 17:46:42.299494 23884 net.cpp:406] conv3 <- conv2
I0426 17:46:42.299505 23884 net.cpp:380] conv3 -> conv3
I0426 17:46:42.316006 23884 net.cpp:122] Setting up conv3
I0426 17:46:42.316030 23884 net.cpp:129] Top shape: 32 64 9 9 (165888)
I0426 17:46:42.316035 23884 net.cpp:137] Memory required for data: 17958784
I0426 17:46:42.316049 23884 layer_factory.hpp:77] Creating layer relu3
I0426 17:46:42.316059 23884 net.cpp:84] Creating Layer relu3
I0426 17:46:42.316064 23884 net.cpp:406] relu3 <- conv3
I0426 17:46:42.316073 23884 net.cpp:367] relu3 -> conv3 (in-place)
I0426 17:46:42.317561 23884 net.cpp:122] Setting up relu3
I0426 17:46:42.317579 23884 net.cpp:129] Top shape: 32 64 9 9 (165888)
I0426 17:46:42.317584 23884 net.cpp:137] Memory required for data: 18622336
I0426 17:46:42.317589 23884 layer_factory.hpp:77] Creating layer fc7
I0426 17:46:42.317600 23884 net.cpp:84] Creating Layer fc7
I0426 17:46:42.317605 23884 net.cpp:406] fc7 <- conv3
I0426 17:46:42.317615 23884 net.cpp:380] fc7 -> fc7
I0426 17:46:42.424830 23884 net.cpp:122] Setting up fc7
I0426 17:46:42.424850 23884 net.cpp:129] Top shape: 32 512 (16384)
I0426 17:46:42.424855 23884 net.cpp:137] Memory required for data: 18687872
I0426 17:46:42.424866 23884 layer_factory.hpp:77] Creating layer relu7
I0426 17:46:42.424878 23884 net.cpp:84] Creating Layer relu7
I0426 17:46:42.424885 23884 net.cpp:406] relu7 <- fc7
I0426 17:46:42.424891 23884 net.cpp:367] relu7 -> fc7 (in-place)
I0426 17:46:42.425905 23884 net.cpp:122] Setting up relu7
I0426 17:46:42.425916 23884 net.cpp:129] Top shape: 32 512 (16384)
I0426 17:46:42.425920 23884 net.cpp:137] Memory required for data: 18753408
I0426 17:46:42.425925 23884 layer_factory.hpp:77] Creating layer drop7
I0426 17:46:42.425935 23884 net.cpp:84] Creating Layer drop7
I0426 17:46:42.425938 23884 net.cpp:406] drop7 <- fc7
I0426 17:46:42.425945 23884 net.cpp:367] drop7 -> fc7 (in-place)
I0426 17:46:42.425987 23884 net.cpp:122] Setting up drop7
I0426 17:46:42.425993 23884 net.cpp:129] Top shape: 32 512 (16384)
I0426 17:46:42.425997 23884 net.cpp:137] Memory required for data: 18818944
I0426 17:46:42.426000 23884 layer_factory.hpp:77] Creating layer fc8_retrain_retrain_retrain_retrain_retrain
I0426 17:46:42.426010 23884 net.cpp:84] Creating Layer fc8_retrain_retrain_retrain_retrain_retrain
I0426 17:46:42.426015 23884 net.cpp:406] fc8_retrain_retrain_retrain_retrain_retrain <- fc7
I0426 17:46:42.426023 23884 net.cpp:380] fc8_retrain_retrain_retrain_retrain_retrain -> fc8
I0426 17:46:42.426257 23884 net.cpp:122] Setting up fc8_retrain_retrain_retrain_retrain_retrain
I0426 17:46:42.426265 23884 net.cpp:129] Top shape: 32 5 (160)
I0426 17:46:42.426270 23884 net.cpp:137] Memory required for data: 18819584
I0426 17:46:42.426280 23884 layer_factory.hpp:77] Creating layer fc8_fc8_retrain_retrain_retrain_retrain_retrain_0_split
I0426 17:46:42.426293 23884 net.cpp:84] Creating Layer fc8_fc8_retrain_retrain_retrain_retrain_retrain_0_split
I0426 17:46:42.426297 23884 net.cpp:406] fc8_fc8_retrain_retrain_retrain_retrain_retrain_0_split <- fc8
I0426 17:46:42.426303 23884 net.cpp:380] fc8_fc8_retrain_retrain_retrain_retrain_retrain_0_split -> fc8_fc8_retrain_retrain_retrain_retrain_retrain_0_split_0
I0426 17:46:42.426311 23884 net.cpp:380] fc8_fc8_retrain_retrain_retrain_retrain_retrain_0_split -> fc8_fc8_retrain_retrain_retrain_retrain_retrain_0_split_1
I0426 17:46:42.426368 23884 net.cpp:122] Setting up fc8_fc8_retrain_retrain_retrain_retrain_retrain_0_split
I0426 17:46:42.426374 23884 net.cpp:129] Top shape: 32 5 (160)
I0426 17:46:42.426378 23884 net.cpp:129] Top shape: 32 5 (160)
I0426 17:46:42.426381 23884 net.cpp:137] Memory required for data: 18820864
I0426 17:46:42.426385 23884 layer_factory.hpp:77] Creating layer accuracy
I0426 17:46:42.426393 23884 net.cpp:84] Creating Layer accuracy
I0426 17:46:42.426398 23884 net.cpp:406] accuracy <- fc8_fc8_retrain_retrain_retrain_retrain_retrain_0_split_0
I0426 17:46:42.426468 23884 net.cpp:406] accuracy <- label_val-data_1_split_0
…
