…
I0416 12:43:51.725184  8189 net.cpp:294] The NetState phase (0) differed from the phase (1) specified by a rule in layer accuracy
I0416 12:43:51.725306  8189 net.cpp:51] Initializing net from parameters:
state {
phase: TRAIN
level: 0
stage: ""
}
layer {
name: "train-data"
type: "Data"
top: "data"
top: "label"
include {
phase: TRAIN
}
transform_param {
mirror: true
crop_size: 110
mean_file: "/home/fei/digits/digits/jobs/20180415-214447-7028/mean.binaryproto"
}
data_param {
source: "/home/fei/digits/digits/jobs/20180415-214447-7028/train_db"
batch_size: 128
backend: LMDB
}
}
layer {
name: "conv1"
type: "Convolution"
bottom: "data"
top: "conv1"
param {
lr_mult: 1
decay_mult: 1
}
param {
lr_mult: 2
decay_mult: 0
}
convolution_param {
num_output: 32
kernel_size: 8
stride: 4
weight_filler {
type: "gaussian"
std: 0.01
}
bias_filler {
type: "constant"
value: 0
}
}
}
layer {
name: "relu1"
type: "ReLU"
bottom: "conv1"
top: "conv1"
}
layer {
name: "norm1"
type: "LRN"
bottom: "conv1"
top: "norm1"
lrn_param {
local_size: 5
alpha: 0.0001
beta: 0.75
}
}
layer {
name: "pool1"
type: "Pooling"
bottom: "norm1"
top: "pool1"
pooling_param {
pool: MAX
kernel_size: 3
stride: 1
}
}
layer {
name: "conv2"
type: "Convolution"
bottom: "pool1"
top: "conv2"
param {
lr_mult: 1
decay_mult: 1
}
param {
lr_mult: 2
decay_mult: 0
}
convolution_param {
num_output: 64
pad: 0
kernel_size: 4
stride: 2
weight_filler {
type: "gaussian"
std: 0.01
}
bias_filler {
type: "constant"
value: 0
}
}
}
layer {
name: "relu2"
type: "ReLU"
bottom: "conv2"
top: "conv2"
}
layer {
name: "conv3"
type: "Convolution"
bottom: "conv2"
top: "conv3"
param {
lr_mult: 1
decay_mult: 1
}
param {
lr_mult: 2
decay_mult: 0
}
convolution_param {
num_output: 64
pad: 0
kernel_size: 3
stride: 1
weight_filler {
type: "gaussian"
std: 0.01
}
bias_filler {
type: "constant"
value: 0
}
}
}
layer {
name: "relu3"
type: "ReLU"
bottom: "conv3"
top: "conv3"
}
layer {
name: "fc7"
type: "InnerProduct"
bottom: "conv3"
top: "fc7"
param {
lr_mult: 1
decay_mult: 1
}
param {
lr_mult: 2
decay_mult: 0
}
inner_product_param {
num_output: 512
weight_filler {
type: "gaussian"
std: 0.005
}
bias_filler {
type: "constant"
value: 0.1
}
}
}
layer {
name: "relu7"
type: "ReLU"
bottom: "fc7"
top: "fc7"
}
layer {
name: "drop7"
type: "Dropout"
bottom: "fc7"
top: "fc7"
dropout_param {
dropout_ratio: 0.5
}
}
layer {
name: "fc8_retrain_retrain"
type: "InnerProduct"
bottom: "fc7"
top: "fc8"
param {
lr_mult: 1
decay_mult: 1
}
param {
lr_mult: 2
decay_mult: 0
}
inner_product_param {
num_output: 5
weight_filler {
type: "gaussian"
std: 0.01
}
bias_filler {
type: "constant"
value: 0
}
}
}
layer {
name: "loss"
type: "SoftmaxWithLoss"
bottom: "fc8"
bottom: "label"
top: "loss"
}
I0416 12:43:51.725399  8189 layer_factory.hpp:77] Creating layer train-data
I0416 12:43:51.725513  8189 db_lmdb.cpp:35] Opened lmdb /home/fei/digits/digits/jobs/20180415-214447-7028/train_db
I0416 12:43:51.725538  8189 net.cpp:84] Creating Layer train-data
I0416 12:43:51.725546  8189 net.cpp:380] train-data -> data
I0416 12:43:51.725594  8189 net.cpp:380] train-data -> label
I0416 12:43:51.725608  8189 data_transformer.cpp:25] Loading mean file from: /home/fei/digits/digits/jobs/20180415-214447-7028/mean.binaryproto
I0416 12:43:51.727998  8189 data_layer.cpp:45] output data size: 128,3,110,110
I0416 12:43:51.817819  8189 net.cpp:122] Setting up train-data
I0416 12:43:51.817839  8189 net.cpp:129] Top shape: 128 3 110 110 (4646400)
I0416 12:43:51.817843  8189 net.cpp:129] Top shape: 128 (128)
I0416 12:43:51.817845  8189 net.cpp:137] Memory required for data: 18586112
I0416 12:43:51.817852  8189 layer_factory.hpp:77] Creating layer conv1
I0416 12:43:51.817869  8189 net.cpp:84] Creating Layer conv1
I0416 12:43:51.817874  8189 net.cpp:406] conv1 <- data
I0416 12:43:51.817884  8189 net.cpp:380] conv1 -> conv1
I0416 12:43:52.345108  8189 net.cpp:122] Setting up conv1
I0416 12:43:52.345129  8189 net.cpp:129] Top shape: 128 32 26 26 (2768896)
I0416 12:43:52.345131  8189 net.cpp:137] Memory required for data: 29661696
I0416 12:43:52.345145  8189 layer_factory.hpp:77] Creating layer relu1
I0416 12:43:52.345155  8189 net.cpp:84] Creating Layer relu1
I0416 12:43:52.345156  8189 net.cpp:406] relu1 <- conv1
I0416 12:43:52.345161  8189 net.cpp:367] relu1 -> conv1 (in-place)
I0416 12:43:52.345716  8189 net.cpp:122] Setting up relu1
I0416 12:43:52.345726  8189 net.cpp:129] Top shape: 128 32 26 26 (2768896)
I0416 12:43:52.345727  8189 net.cpp:137] Memory required for data: 40737280
I0416 12:43:52.345729  8189 layer_factory.hpp:77] Creating layer norm1
I0416 12:43:52.345736  8189 net.cpp:84] Creating Layer norm1
I0416 12:43:52.345739  8189 net.cpp:406] norm1 <- conv1
I0416 12:43:52.345743  8189 net.cpp:380] norm1 -> norm1
I0416 12:43:52.346113  8189 net.cpp:122] Setting up norm1
I0416 12:43:52.346118  8189 net.cpp:129] Top shape: 128 32 26 26 (2768896)
I0416 12:43:52.346120  8189 net.cpp:137] Memory required for data: 51812864
I0416 12:43:52.346122  8189 layer_factory.hpp:77] Creating layer pool1
I0416 12:43:52.346129  8189 net.cpp:84] Creating Layer pool1
I0416 12:43:52.346132  8189 net.cpp:406] pool1 <- norm1
I0416 12:43:52.346135  8189 net.cpp:380] pool1 -> pool1
I0416 12:43:52.346169  8189 net.cpp:122] Setting up pool1
I0416 12:43:52.346174  8189 net.cpp:129] Top shape: 128 32 24 24 (2359296)
I0416 12:43:52.346175  8189 net.cpp:137] Memory required for data: 61250048
I0416 12:43:52.346177  8189 layer_factory.hpp:77] Creating layer conv2
I0416 12:43:52.346185  8189 net.cpp:84] Creating Layer conv2
I0416 12:43:52.346189  8189 net.cpp:406] conv2 <- pool1
I0416 12:43:52.346192  8189 net.cpp:380] conv2 -> conv2
I0416 12:43:52.352432  8189 net.cpp:122] Setting up conv2
I0416 12:43:52.352443  8189 net.cpp:129] Top shape: 128 64 11 11 (991232)
I0416 12:43:52.352445  8189 net.cpp:137] Memory required for data: 65214976
I0416 12:43:52.352452  8189 layer_factory.hpp:77] Creating layer relu2
I0416 12:43:52.352458  8189 net.cpp:84] Creating Layer relu2
I0416 12:43:52.352460  8189 net.cpp:406] relu2 <- conv2
I0416 12:43:52.352464  8189 net.cpp:367] relu2 -> conv2 (in-place)
I0416 12:43:52.352989  8189 net.cpp:122] Setting up relu2
I0416 12:43:52.352996  8189 net.cpp:129] Top shape: 128 64 11 11 (991232)
I0416 12:43:52.352998  8189 net.cpp:137] Memory required for data: 69179904
I0416 12:43:52.353001  8189 layer_factory.hpp:77] Creating layer conv3
I0416 12:43:52.353008  8189 net.cpp:84] Creating Layer conv3
I0416 12:43:52.353011  8189 net.cpp:406] conv3 <- conv2
I0416 12:43:52.353015  8189 net.cpp:380] conv3 -> conv3
I0416 12:43:52.355103  8189 net.cpp:122] Setting up conv3
I0416 12:43:52.355111  8189 net.cpp:129] Top shape: 128 64 9 9 (663552)
I0416 12:43:52.355113  8189 net.cpp:137] Memory required for data: 71834112
I0416 12:43:52.355123  8189 layer_factory.hpp:77] Creating layer relu3
I0416 12:43:52.355128  8189 net.cpp:84] Creating Layer relu3
I0416 12:43:52.355130  8189 net.cpp:406] relu3 <- conv3
I0416 12:43:52.355134  8189 net.cpp:367] relu3 -> conv3 (in-place)
I0416 12:43:52.355535  8189 net.cpp:122] Setting up relu3
I0416 12:43:52.355542  8189 net.cpp:129] Top shape: 128 64 9 9 (663552)
I0416 12:43:52.355545  8189 net.cpp:137] Memory required for data: 74488320
I0416 12:43:52.355546  8189 layer_factory.hpp:77] Creating layer fc7
I0416 12:43:52.355552  8189 net.cpp:84] Creating Layer fc7
I0416 12:43:52.355556  8189 net.cpp:406] fc7 <- conv3
I0416 12:43:52.355559  8189 net.cpp:380] fc7 -> fc7
I0416 12:43:52.378056  8189 net.cpp:122] Setting up fc7
I0416 12:43:52.378073  8189 net.cpp:129] Top shape: 128 512 (65536)
I0416 12:43:52.378075  8189 net.cpp:137] Memory required for data: 74750464
I0416 12:43:52.378084  8189 layer_factory.hpp:77] Creating layer relu7
I0416 12:43:52.378091  8189 net.cpp:84] Creating Layer relu7
I0416 12:43:52.378095  8189 net.cpp:406] relu7 <- fc7
I0416 12:43:52.378100  8189 net.cpp:367] relu7 -> fc7 (in-place)
I0416 12:43:52.378811  8189 net.cpp:122] Setting up relu7
I0416 12:43:52.378820  8189 net.cpp:129] Top shape: 128 512 (65536)
I0416 12:43:52.378823  8189 net.cpp:137] Memory required for data: 75012608
I0416 12:43:52.378825  8189 layer_factory.hpp:77] Creating layer drop7
I0416 12:43:52.378831  8189 net.cpp:84] Creating Layer drop7
I0416 12:43:52.378834  8189 net.cpp:406] drop7 <- fc7
I0416 12:43:52.378837  8189 net.cpp:367] drop7 -> fc7 (in-place)
I0416 12:43:52.378865  8189 net.cpp:122] Setting up drop7
I0416 12:43:52.378867  8189 net.cpp:129] Top shape: 128 512 (65536)
I0416 12:43:52.378870  8189 net.cpp:137] Memory required for data: 75274752
I0416 12:43:52.378871  8189 layer_factory.hpp:77] Creating layer fc8_retrain_retrain
I0416 12:43:52.378877  8189 net.cpp:84] Creating Layer fc8_retrain_retrain
I0416 12:43:52.378880  8189 net.cpp:406] fc8_retrain_retrain <- fc7
I0416 12:43:52.378883  8189 net.cpp:380] fc8_retrain_retrain -> fc8
I0416 12:43:52.379425  8189 net.cpp:122] Setting up fc8_retrain_retrain
I0416 12:43:52.379431  8189 net.cpp:129] Top shape: 128 5 (640)
I0416 12:43:52.379433  8189 net.cpp:137] Memory required for data: 75277312
I0416 12:43:52.379441  8189 layer_factory.hpp:77] Creating layer loss
I0416 12:43:52.379446  8189 net.cpp:84] Creating Layer loss
I0416 12:43:52.379449  8189 net.cpp:406] loss <- fc8
I0416 12:43:52.379452  8189 net.cpp:406] loss <- label
I0416 12:43:52.379456  8189 net.cpp:380] loss -> loss
I0416 12:43:52.379463  8189 layer_factory.hpp:77] Creating layer loss
…
I0416 12:43:52.380369  8189 solver.cpp:190] Creating test net (#0) specified by net file: train_val.prototxt
I0416 12:43:52.380388  8189 net.cpp:294] The NetState phase (1) differed from the phase (0) specified by a rule in layer train-data
I0416 12:43:52.380517  8189 net.cpp:51] Initializing net from parameters:
state {
phase: TEST
}
layer {
name: "val-data"
type: "Data"
top: "data"
top: "label"
include {
phase: TEST
}
transform_param {
crop_size: 110
mean_file: "/home/fei/digits/digits/jobs/20180415-214447-7028/mean.binaryproto"
}
data_param {
source: "/home/fei/digits/digits/jobs/20180415-214447-7028/val_db"
batch_size: 32
backend: LMDB
}
}
layer {
name: "conv1"
type: "Convolution"
bottom: "data"
top: "conv1"
param {
lr_mult: 1
decay_mult: 1
}
param {
lr_mult: 2
decay_mult: 0
}
convolution_param {
num_output: 32
kernel_size: 8
stride: 4
weight_filler {
type: "gaussian"
std: 0.01
}
bias_filler {
type: "constant"
value: 0
}
}
}
layer {
name: "relu1"
type: "ReLU"
bottom: "conv1"
top: "conv1"
}
layer {
name: "norm1"
type: "LRN"
bottom: "conv1"
top: "norm1"
lrn_param {
local_size: 5
alpha: 0.0001
beta: 0.75
}
}
layer {
name: "pool1"
type: "Pooling"
bottom: "norm1"
top: "pool1"
pooling_param {
pool: MAX
kernel_size: 3
stride: 1
}
}
layer {
name: "conv2"
type: "Convolution"
bottom: "pool1"
top: "conv2"
param {
lr_mult: 1
decay_mult: 1
}
param {
lr_mult: 2
decay_mult: 0
}
convolution_param {
num_output: 64
pad: 0
kernel_size: 4
stride: 2
weight_filler {
type: "gaussian"
std: 0.01
}
bias_filler {
type: "constant"
value: 0
}
}
}
layer {
name: "relu2"
type: "ReLU"
bottom: "conv2"
top: "conv2"
}
layer {
name: "conv3"
type: "Convolution"
bottom: "conv2"
top: "conv3"
param {
lr_mult: 1
decay_mult: 1
}
param {
lr_mult: 2
decay_mult: 0
}
convolution_param {
num_output: 64
pad: 0
kernel_size: 3
stride: 1
weight_filler {
type: "gaussian"
std: 0.01
}
bias_filler {
type: "constant"
value: 0
}
}
}
layer {
name: "relu3"
type: "ReLU"
bottom: "conv3"
top: "conv3"
}
layer {
name: "fc7"
type: "InnerProduct"
bottom: "conv3"
top: "fc7"
param {
lr_mult: 1
decay_mult: 1
}
param {
lr_mult: 2
decay_mult: 0
}
inner_product_param {
num_output: 512
weight_filler {
type: "gaussian"
std: 0.005
}
bias_filler {
type: "constant"
value: 0.1
}
}
}
layer {
name: "relu7"
type: "ReLU"
bottom: "fc7"
top: "fc7"
}
layer {
name: "drop7"
type: "Dropout"
bottom: "fc7"
top: "fc7"
dropout_param {
dropout_ratio: 0.5
}
}
layer {
name: "fc8_retrain_retrain"
type: "InnerProduct"
bottom: "fc7"
top: "fc8"
param {
lr_mult: 1
decay_mult: 1
}
param {
lr_mult: 2
decay_mult: 0
}
inner_product_param {
num_output: 5
weight_filler {
type: "gaussian"
std: 0.01
}
bias_filler {
type: "constant"
value: 0
}
}
}
layer {
name: "accuracy"
type: "Accuracy"
bottom: "fc8"
bottom: "label"
top: "accuracy"
include {
phase: TEST
}
}
layer {
name: "loss"
type: "SoftmaxWithLoss"
bottom: "fc8"
bottom: "label"
top: "loss"
}
I0416 12:43:52.380576  8189 layer_factory.hpp:77] Creating layer val-data
I0416 12:43:52.380626  8189 db_lmdb.cpp:35] Opened lmdb /home/fei/digits/digits/jobs/20180415-214447-7028/val_db
I0416 12:43:52.380636  8189 net.cpp:84] Creating Layer val-data
I0416 12:43:52.380641  8189 net.cpp:380] val-data -> data
I0416 12:43:52.380647  8189 net.cpp:380] val-data -> label
I0416 12:43:52.380662  8189 data_transformer.cpp:25] Loading mean file from: /home/fei/digits/digits/jobs/20180415-214447-7028/mean.binaryproto
I0416 12:43:52.381510  8189 data_layer.cpp:45] output data size: 32,3,110,110
I0416 12:43:52.404525  8189 net.cpp:122] Setting up val-data
I0416 12:43:52.404544  8189 net.cpp:129] Top shape: 32 3 110 110 (1161600)
I0416 12:43:52.404547  8189 net.cpp:129] Top shape: 32 (32)
I0416 12:43:52.404549  8189 net.cpp:137] Memory required for data: 4646528
I0416 12:43:52.404554  8189 layer_factory.hpp:77] Creating layer label_val-data_1_split
I0416 12:43:52.404567  8189 net.cpp:84] Creating Layer label_val-data_1_split
I0416 12:43:52.404569  8189 net.cpp:406] label_val-data_1_split <- label
I0416 12:43:52.404575  8189 net.cpp:380] label_val-data_1_split -> label_val-data_1_split_0
I0416 12:43:52.404582  8189 net.cpp:380] label_val-data_1_split -> label_val-data_1_split_1
I0416 12:43:52.404634  8189 net.cpp:122] Setting up label_val-data_1_split
I0416 12:43:52.404639  8189 net.cpp:129] Top shape: 32 (32)
I0416 12:43:52.404640  8189 net.cpp:129] Top shape: 32 (32)
I0416 12:43:52.404642  8189 net.cpp:137] Memory required for data: 4646784
I0416 12:43:52.404644  8189 layer_factory.hpp:77] Creating layer conv1
I0416 12:43:52.404654  8189 net.cpp:84] Creating Layer conv1
I0416 12:43:52.404655  8189 net.cpp:406] conv1 <- data
I0416 12:43:52.404659  8189 net.cpp:380] conv1 -> conv1
I0416 12:43:52.407043  8189 net.cpp:122] Setting up conv1
I0416 12:43:52.407061  8189 net.cpp:129] Top shape: 32 32 26 26 (692224)
I0416 12:43:52.407065  8189 net.cpp:137] Memory required for data: 7415680
I0416 12:43:52.407078  8189 layer_factory.hpp:77] Creating layer relu1
I0416 12:43:52.407089  8189 net.cpp:84] Creating Layer relu1
I0416 12:43:52.407094  8189 net.cpp:406] relu1 <- conv1
I0416 12:43:52.407099  8189 net.cpp:367] relu1 -> conv1 (in-place)
I0416 12:43:52.410316  8189 net.cpp:122] Setting up relu1
I0416 12:43:52.410351  8189 net.cpp:129] Top shape: 32 32 26 26 (692224)
I0416 12:43:52.410356  8189 net.cpp:137] Memory required for data: 10184576
I0416 12:43:52.410359  8189 layer_factory.hpp:77] Creating layer norm1
I0416 12:43:52.410372  8189 net.cpp:84] Creating Layer norm1
I0416 12:43:52.410375  8189 net.cpp:406] norm1 <- conv1
I0416 12:43:52.410382  8189 net.cpp:380] norm1 -> norm1
I0416 12:43:52.416168  8189 net.cpp:122] Setting up norm1
I0416 12:43:52.416182  8189 net.cpp:129] Top shape: 32 32 26 26 (692224)
I0416 12:43:52.416184  8189 net.cpp:137] Memory required for data: 12953472
I0416 12:43:52.416189  8189 layer_factory.hpp:77] Creating layer pool1
I0416 12:43:52.416198  8189 net.cpp:84] Creating Layer pool1
I0416 12:43:52.416201  8189 net.cpp:406] pool1 <- norm1
I0416 12:43:52.416206  8189 net.cpp:380] pool1 -> pool1
I0416 12:43:52.416252  8189 net.cpp:122] Setting up pool1
I0416 12:43:52.416258  8189 net.cpp:129] Top shape: 32 32 24 24 (589824)
I0416 12:43:52.416261  8189 net.cpp:137] Memory required for data: 15312768
I0416 12:43:52.416265  8189 layer_factory.hpp:77] Creating layer conv2
I0416 12:43:52.416276  8189 net.cpp:84] Creating Layer conv2
I0416 12:43:52.416280  8189 net.cpp:406] conv2 <- pool1
I0416 12:43:52.416286  8189 net.cpp:380] conv2 -> conv2
I0416 12:43:52.419275  8189 net.cpp:122] Setting up conv2
I0416 12:43:52.419296  8189 net.cpp:129] Top shape: 32 64 11 11 (247808)
I0416 12:43:52.419298  8189 net.cpp:137] Memory required for data: 16304000
I0416 12:43:52.419312  8189 layer_factory.hpp:77] Creating layer relu2
I0416 12:43:52.419319  8189 net.cpp:84] Creating Layer relu2
I0416 12:43:52.419323  8189 net.cpp:406] relu2 <- conv2
I0416 12:43:52.419329  8189 net.cpp:367] relu2 -> conv2 (in-place)
I0416 12:43:52.419832  8189 net.cpp:122] Setting up relu2
I0416 12:43:52.419844  8189 net.cpp:129] Top shape: 32 64 11 11 (247808)
I0416 12:43:52.419847  8189 net.cpp:137] Memory required for data: 17295232
I0416 12:43:52.419852  8189 layer_factory.hpp:77] Creating layer conv3
I0416 12:43:52.419867  8189 net.cpp:84] Creating Layer conv3
I0416 12:43:52.419870  8189 net.cpp:406] conv3 <- conv2
I0416 12:43:52.419894  8189 net.cpp:380] conv3 -> conv3
I0416 12:43:52.423327  8189 net.cpp:122] Setting up conv3
I0416 12:43:52.423344  8189 net.cpp:129] Top shape: 32 64 9 9 (165888)
I0416 12:43:52.423347  8189 net.cpp:137] Memory required for data: 17958784
I0416 12:43:52.423362  8189 layer_factory.hpp:77] Creating layer relu3
I0416 12:43:52.423370  8189 net.cpp:84] Creating Layer relu3
I0416 12:43:52.423374  8189 net.cpp:406] relu3 <- conv3
I0416 12:43:52.423380  8189 net.cpp:367] relu3 -> conv3 (in-place)
I0416 12:43:52.424140  8189 net.cpp:122] Setting up relu3
I0416 12:43:52.424151  8189 net.cpp:129] Top shape: 32 64 9 9 (165888)
I0416 12:43:52.424154  8189 net.cpp:137] Memory required for data: 18622336
I0416 12:43:52.424159  8189 layer_factory.hpp:77] Creating layer fc7
I0416 12:43:52.424166  8189 net.cpp:84] Creating Layer fc7
I0416 12:43:52.424170  8189 net.cpp:406] fc7 <- conv3
I0416 12:43:52.424178  8189 net.cpp:380] fc7 -> fc7
I0416 12:43:52.459965  8189 net.cpp:122] Setting up fc7
I0416 12:43:52.459981  8189 net.cpp:129] Top shape: 32 512 (16384)
I0416 12:43:52.459985  8189 net.cpp:137] Memory required for data: 18687872
I0416 12:43:52.459995  8189 layer_factory.hpp:77] Creating layer relu7
I0416 12:43:52.460003  8189 net.cpp:84] Creating Layer relu7
I0416 12:43:52.460007  8189 net.cpp:406] relu7 <- fc7
I0416 12:43:52.460014  8189 net.cpp:367] relu7 -> fc7 (in-place)
I0416 12:43:52.460849  8189 net.cpp:122] Setting up relu7
I0416 12:43:52.460857  8189 net.cpp:129] Top shape: 32 512 (16384)
I0416 12:43:52.460860  8189 net.cpp:137] Memory required for data: 18753408
I0416 12:43:52.460865  8189 layer_factory.hpp:77] Creating layer drop7
I0416 12:43:52.460872  8189 net.cpp:84] Creating Layer drop7
I0416 12:43:52.460875  8189 net.cpp:406] drop7 <- fc7
I0416 12:43:52.460882  8189 net.cpp:367] drop7 -> fc7 (in-place)
I0416 12:43:52.460911  8189 net.cpp:122] Setting up drop7
I0416 12:43:52.460916  8189 net.cpp:129] Top shape: 32 512 (16384)
I0416 12:43:52.460919  8189 net.cpp:137] Memory required for data: 18818944
I0416 12:43:52.460922  8189 layer_factory.hpp:77] Creating layer fc8_retrain_retrain
I0416 12:43:52.460932  8189 net.cpp:84] Creating Layer fc8_retrain_retrain
I0416 12:43:52.460934  8189 net.cpp:406] fc8_retrain_retrain <- fc7
I0416 12:43:52.460940  8189 net.cpp:380] fc8_retrain_retrain -> fc8
I0416 12:43:52.461099  8189 net.cpp:122] Setting up fc8_retrain_retrain
I0416 12:43:52.461105  8189 net.cpp:129] Top shape: 32 5 (160)
I0416 12:43:52.461109  8189 net.cpp:137] Memory required for data: 18819584
I0416 12:43:52.461119  8189 layer_factory.hpp:77] Creating layer fc8_fc8_retrain_retrain_0_split
I0416 12:43:52.461127  8189 net.cpp:84] Creating Layer fc8_fc8_retrain_retrain_0_split
I0416 12:43:52.461129  8189 net.cpp:406] fc8_fc8_retrain_retrain_0_split <- fc8
I0416 12:43:52.461134  8189 net.cpp:380] fc8_fc8_retrain_retrain_0_split -> fc8_fc8_retrain_retrain_0_split_0
I0416 12:43:52.461144  8189 net.cpp:380] fc8_fc8_retrain_retrain_0_split -> fc8_fc8_retrain_retrain_0_split_1
I0416 12:43:52.461186  8189 net.cpp:122] Setting up fc8_fc8_retrain_retrain_0_split
I0416 12:43:52.461191  8189 net.cpp:129] Top shape: 32 5 (160)
I0416 12:43:52.461195  8189 net.cpp:129] Top shape: 32 5 (160)
I0416 12:43:52.461199  8189 net.cpp:137] Memory required for data: 18820864
I0416 12:43:52.461201  8189 layer_factory.hpp:77] Creating layer accuracy
I0416 12:43:52.461208  8189 net.cpp:84] Creating Layer accuracy
I0416 12:43:52.461211  8189 net.cpp:406] accuracy <- fc8_fc8_retrain_retrain_0_split_0
I0416 12:43:52.461215  8189 net.cpp:406] accuracy <- label_val-data_1_split_0
I0416 12:43:52.461220  8189 net.cpp:380] accuracy -> accuracy
…
