…
I0426 15:49:28.494325 28667 net.cpp:294] The NetState phase (0) differed from the phase (1) specified by a rule in layer accuracy
I0426 15:49:28.494482 28667 net.cpp:51] Initializing net from parameters:
state {
phase: TRAIN
level: 0
stage: ""
}
layer {
name: "train-data"
type: "Data"
top: "data"
top: "label"
include {
phase: TRAIN
}
transform_param {
mirror: true
crop_size: 110
mean_file: "/home/fei/digits/digits/jobs/20180415-214315-4313/mean.binaryproto"
}
data_param {
source: "/home/fei/digits/digits/jobs/20180415-214315-4313/train_db"
batch_size: 128
backend: LMDB
}
}
layer {
name: "conv1"
type: "Convolution"
bottom: "data"
top: "conv1"
param {
lr_mult: 1
decay_mult: 1
}
param {
lr_mult: 2
decay_mult: 0
}
convolution_param {
num_output: 32
kernel_size: 8
stride: 4
weight_filler {
type: "gaussian"
std: 0.01
}
bias_filler {
type: "constant"
value: 0
}
}
}
layer {
name: "relu1"
type: "ReLU"
bottom: "conv1"
top: "conv1"
}
layer {
name: "norm1"
type: "LRN"
bottom: "conv1"
top: "norm1"
lrn_param {
local_size: 5
alpha: 0.0001
beta: 0.75
}
}
layer {
name: "pool1"
type: "Pooling"
bottom: "norm1"
top: "pool1"
pooling_param {
pool: MAX
kernel_size: 3
stride: 1
}
}
layer {
name: "conv2"
type: "Convolution"
bottom: "pool1"
top: "conv2"
param {
lr_mult: 1
decay_mult: 1
}
param {
lr_mult: 2
decay_mult: 0
}
convolution_param {
num_output: 64
pad: 0
kernel_size: 4
stride: 2
weight_filler {
type: "gaussian"
std: 0.01
}
bias_filler {
type: "constant"
value: 0
}
}
}
layer {
name: "relu2"
type: "ReLU"
bottom: "conv2"
top: "conv2"
}
layer {
name: "conv3"
type: "Convolution"
bottom: "conv2"
top: "conv3"
param {
lr_mult: 1
decay_mult: 1
}
param {
lr_mult: 2
decay_mult: 0
}
convolution_param {
num_output: 64
pad: 0
kernel_size: 3
stride: 1
weight_filler {
type: "gaussian"
std: 0.01
}
bias_filler {
type: "constant"
value: 0
}
}
}
layer {
name: "relu3"
type: "ReLU"
bottom: "conv3"
top: "conv3"
}
layer {
name: "fc7"
type: "InnerProduct"
bottom: "conv3"
top: "fc7"
param {
lr_mult: 1
decay_mult: 1
}
param {
lr_mult: 2
decay_mult: 0
}
inner_product_param {
num_output: 512
weight_filler {
type: "gaussian"
std: 0.005
}
bias_filler {
type: "constant"
value: 0.1
}
}
}
layer {
name: "relu7"
type: "ReLU"
bottom: "fc7"
top: "fc7"
}
layer {
name: "drop7"
type: "Dropout"
bottom: "fc7"
top: "fc7"
dropout_param {
dropout_ratio: 0.5
}
}
layer {
name: "fc8_retrain_retrain_retrain_retrain"
type: "InnerProduct"
bottom: "fc7"
top: "fc8"
param {
lr_mult: 1
decay_mult: 1
}
param {
lr_mult: 2
decay_mult: 0
}
inner_product_param {
num_output: 2
weight_filler {
type: "gaussian"
std: 0.01
}
bias_filler {
type: "constant"
value: 0
}
}
}
layer {
name: "loss"
type: "SoftmaxWithLoss"
bottom: "fc8"
bottom: "label"
top: "loss"
}
I0426 15:49:28.494597 28667 layer_factory.hpp:77] Creating layer train-data
I0426 15:49:28.643244 28667 db_lmdb.cpp:35] Opened lmdb /home/fei/digits/digits/jobs/20180415-214315-4313/train_db
I0426 15:49:28.643296 28667 net.cpp:84] Creating Layer train-data
I0426 15:49:28.643313 28667 net.cpp:380] train-data -> data
I0426 15:49:28.643342 28667 net.cpp:380] train-data -> label
I0426 15:49:28.643359 28667 data_transformer.cpp:25] Loading mean file from: /home/fei/digits/digits/jobs/20180415-214315-4313/mean.binaryproto
I0426 15:49:28.666595 28667 data_layer.cpp:45] output data size: 128,3,110,110
I0426 15:49:28.740169 28667 net.cpp:122] Setting up train-data
I0426 15:49:28.740198 28667 net.cpp:129] Top shape: 128 3 110 110 (4646400)
I0426 15:49:28.740206 28667 net.cpp:129] Top shape: 128 (128)
I0426 15:49:28.740209 28667 net.cpp:137] Memory required for data: 18586112
I0426 15:49:28.740219 28667 layer_factory.hpp:77] Creating layer conv1
I0426 15:49:28.740243 28667 net.cpp:84] Creating Layer conv1
I0426 15:49:28.740250 28667 net.cpp:406] conv1 <- data
I0426 15:49:28.740264 28667 net.cpp:380] conv1 -> conv1
I0426 15:49:29.612414 28667 net.cpp:122] Setting up conv1
I0426 15:49:29.612439 28667 net.cpp:129] Top shape: 128 32 26 26 (2768896)
I0426 15:49:29.612443 28667 net.cpp:137] Memory required for data: 29661696
I0426 15:49:29.612468 28667 layer_factory.hpp:77] Creating layer relu1
I0426 15:49:29.612480 28667 net.cpp:84] Creating Layer relu1
I0426 15:49:29.612485 28667 net.cpp:406] relu1 <- conv1
I0426 15:49:29.612525 28667 net.cpp:367] relu1 -> conv1 (in-place)
I0426 15:49:29.613497 28667 net.cpp:122] Setting up relu1
I0426 15:49:29.613512 28667 net.cpp:129] Top shape: 128 32 26 26 (2768896)
I0426 15:49:29.613515 28667 net.cpp:137] Memory required for data: 40737280
I0426 15:49:29.613519 28667 layer_factory.hpp:77] Creating layer norm1
I0426 15:49:29.613533 28667 net.cpp:84] Creating Layer norm1
I0426 15:49:29.613536 28667 net.cpp:406] norm1 <- conv1
I0426 15:49:29.613544 28667 net.cpp:380] norm1 -> norm1
I0426 15:49:29.614198 28667 net.cpp:122] Setting up norm1
I0426 15:49:29.614209 28667 net.cpp:129] Top shape: 128 32 26 26 (2768896)
I0426 15:49:29.614213 28667 net.cpp:137] Memory required for data: 51812864
I0426 15:49:29.614217 28667 layer_factory.hpp:77] Creating layer pool1
I0426 15:49:29.614229 28667 net.cpp:84] Creating Layer pool1
I0426 15:49:29.614234 28667 net.cpp:406] pool1 <- norm1
I0426 15:49:29.614241 28667 net.cpp:380] pool1 -> pool1
I0426 15:49:29.614325 28667 net.cpp:122] Setting up pool1
I0426 15:49:29.614332 28667 net.cpp:129] Top shape: 128 32 24 24 (2359296)
I0426 15:49:29.614336 28667 net.cpp:137] Memory required for data: 61250048
I0426 15:49:29.614341 28667 layer_factory.hpp:77] Creating layer conv2
I0426 15:49:29.614353 28667 net.cpp:84] Creating Layer conv2
I0426 15:49:29.614357 28667 net.cpp:406] conv2 <- pool1
I0426 15:49:29.614367 28667 net.cpp:380] conv2 -> conv2
I0426 15:49:29.623435 28667 net.cpp:122] Setting up conv2
I0426 15:49:29.623459 28667 net.cpp:129] Top shape: 128 64 11 11 (991232)
I0426 15:49:29.623463 28667 net.cpp:137] Memory required for data: 65214976
I0426 15:49:29.623481 28667 layer_factory.hpp:77] Creating layer relu2
I0426 15:49:29.623492 28667 net.cpp:84] Creating Layer relu2
I0426 15:49:29.623497 28667 net.cpp:406] relu2 <- conv2
I0426 15:49:29.623505 28667 net.cpp:367] relu2 -> conv2 (in-place)
I0426 15:49:29.624480 28667 net.cpp:122] Setting up relu2
I0426 15:49:29.624512 28667 net.cpp:129] Top shape: 128 64 11 11 (991232)
I0426 15:49:29.624516 28667 net.cpp:137] Memory required for data: 69179904
I0426 15:49:29.624522 28667 layer_factory.hpp:77] Creating layer conv3
I0426 15:49:29.624541 28667 net.cpp:84] Creating Layer conv3
I0426 15:49:29.624547 28667 net.cpp:406] conv3 <- conv2
I0426 15:49:29.624558 28667 net.cpp:380] conv3 -> conv3
I0426 15:49:29.629034 28667 net.cpp:122] Setting up conv3
I0426 15:49:29.629058 28667 net.cpp:129] Top shape: 128 64 9 9 (663552)
I0426 15:49:29.629062 28667 net.cpp:137] Memory required for data: 71834112
I0426 15:49:29.629081 28667 layer_factory.hpp:77] Creating layer relu3
I0426 15:49:29.629092 28667 net.cpp:84] Creating Layer relu3
I0426 15:49:29.629096 28667 net.cpp:406] relu3 <- conv3
I0426 15:49:29.629106 28667 net.cpp:367] relu3 -> conv3 (in-place)
I0426 15:49:29.629762 28667 net.cpp:122] Setting up relu3
I0426 15:49:29.629779 28667 net.cpp:129] Top shape: 128 64 9 9 (663552)
I0426 15:49:29.629783 28667 net.cpp:137] Memory required for data: 74488320
I0426 15:49:29.629812 28667 layer_factory.hpp:77] Creating layer fc7
I0426 15:49:29.629822 28667 net.cpp:84] Creating Layer fc7
I0426 15:49:29.629827 28667 net.cpp:406] fc7 <- conv3
I0426 15:49:29.629835 28667 net.cpp:380] fc7 -> fc7
I0426 15:49:29.683347 28667 net.cpp:122] Setting up fc7
I0426 15:49:29.683373 28667 net.cpp:129] Top shape: 128 512 (65536)
I0426 15:49:29.683377 28667 net.cpp:137] Memory required for data: 74750464
I0426 15:49:29.683389 28667 layer_factory.hpp:77] Creating layer relu7
I0426 15:49:29.683420 28667 net.cpp:84] Creating Layer relu7
I0426 15:49:29.683429 28667 net.cpp:406] relu7 <- fc7
I0426 15:49:29.683436 28667 net.cpp:367] relu7 -> fc7 (in-place)
I0426 15:49:29.684690 28667 net.cpp:122] Setting up relu7
I0426 15:49:29.684703 28667 net.cpp:129] Top shape: 128 512 (65536)
I0426 15:49:29.684707 28667 net.cpp:137] Memory required for data: 75012608
I0426 15:49:29.684712 28667 layer_factory.hpp:77] Creating layer drop7
I0426 15:49:29.684720 28667 net.cpp:84] Creating Layer drop7
I0426 15:49:29.684725 28667 net.cpp:406] drop7 <- fc7
I0426 15:49:29.684733 28667 net.cpp:367] drop7 -> fc7 (in-place)
I0426 15:49:29.684773 28667 net.cpp:122] Setting up drop7
I0426 15:49:29.684779 28667 net.cpp:129] Top shape: 128 512 (65536)
I0426 15:49:29.684783 28667 net.cpp:137] Memory required for data: 75274752
I0426 15:49:29.684787 28667 layer_factory.hpp:77] Creating layer fc8_retrain_retrain_retrain_retrain
I0426 15:49:29.684798 28667 net.cpp:84] Creating Layer fc8_retrain_retrain_retrain_retrain
I0426 15:49:29.684801 28667 net.cpp:406] fc8_retrain_retrain_retrain_retrain <- fc7
I0426 15:49:29.684809 28667 net.cpp:380] fc8_retrain_retrain_retrain_retrain -> fc8
I0426 15:49:29.684967 28667 net.cpp:122] Setting up fc8_retrain_retrain_retrain_retrain
I0426 15:49:29.684974 28667 net.cpp:129] Top shape: 128 2 (256)
I0426 15:49:29.684978 28667 net.cpp:137] Memory required for data: 75275776
I0426 15:49:29.684991 28667 layer_factory.hpp:77] Creating layer loss
I0426 15:49:29.684998 28667 net.cpp:84] Creating Layer loss
I0426 15:49:29.685003 28667 net.cpp:406] loss <- fc8
I0426 15:49:29.685008 28667 net.cpp:406] loss <- label
I0426 15:49:29.685016 28667 net.cpp:380] loss -> loss
I0426 15:49:29.685026 28667 layer_factory.hpp:77] Creating layer loss
…
I0426 15:49:29.686704 28667 solver.cpp:190] Creating test net (#0) specified by net file: train_val.prototxt
I0426 15:49:29.686734 28667 net.cpp:294] The NetState phase (1) differed from the phase (0) specified by a rule in layer train-data
I0426 15:49:29.686905 28667 net.cpp:51] Initializing net from parameters:
state {
phase: TEST
}
layer {
name: "val-data"
type: "Data"
top: "data"
top: "label"
include {
phase: TEST
}
transform_param {
crop_size: 110
mean_file: "/home/fei/digits/digits/jobs/20180415-214315-4313/mean.binaryproto"
}
data_param {
source: "/home/fei/digits/digits/jobs/20180415-214315-4313/val_db"
batch_size: 32
backend: LMDB
}
}
layer {
name: "conv1"
type: "Convolution"
bottom: "data"
top: "conv1"
param {
lr_mult: 1
decay_mult: 1
}
param {
lr_mult: 2
decay_mult: 0
}
convolution_param {
num_output: 32
kernel_size: 8
stride: 4
weight_filler {
type: "gaussian"
std: 0.01
}
bias_filler {
type: "constant"
value: 0
}
}
}
layer {
name: "relu1"
type: "ReLU"
bottom: "conv1"
top: "conv1"
}
layer {
name: "norm1"
type: "LRN"
bottom: "conv1"
top: "norm1"
lrn_param {
local_size: 5
alpha: 0.0001
beta: 0.75
}
}
layer {
name: "pool1"
type: "Pooling"
bottom: "norm1"
top: "pool1"
pooling_param {
pool: MAX
kernel_size: 3
stride: 1
}
}
layer {
name: "conv2"
type: "Convolution"
bottom: "pool1"
top: "conv2"
param {
lr_mult: 1
decay_mult: 1
}
param {
lr_mult: 2
decay_mult: 0
}
convolution_param {
num_output: 64
pad: 0
kernel_size: 4
stride: 2
weight_filler {
type: "gaussian"
std: 0.01
}
bias_filler {
type: "constant"
value: 0
}
}
}
layer {
name: "relu2"
type: "ReLU"
bottom: "conv2"
top: "conv2"
}
layer {
name: "conv3"
type: "Convolution"
bottom: "conv2"
top: "conv3"
param {
lr_mult: 1
decay_mult: 1
}
param {
lr_mult: 2
decay_mult: 0
}
convolution_param {
num_output: 64
pad: 0
kernel_size: 3
stride: 1
weight_filler {
type: "gaussian"
std: 0.01
}
bias_filler {
type: "constant"
value: 0
}
}
}
layer {
name: "relu3"
type: "ReLU"
bottom: "conv3"
top: "conv3"
}
layer {
name: "fc7"
type: "InnerProduct"
bottom: "conv3"
top: "fc7"
param {
lr_mult: 1
decay_mult: 1
}
param {
lr_mult: 2
decay_mult: 0
}
inner_product_param {
num_output: 512
weight_filler {
type: "gaussian"
std: 0.005
}
bias_filler {
type: "constant"
value: 0.1
}
}
}
layer {
name: "relu7"
type: "ReLU"
bottom: "fc7"
top: "fc7"
}
layer {
name: "drop7"
type: "Dropout"
bottom: "fc7"
top: "fc7"
dropout_param {
dropout_ratio: 0.5
}
}
layer {
name: "fc8_retrain_retrain_retrain_retrain"
type: "InnerProduct"
bottom: "fc7"
top: "fc8"
param {
lr_mult: 1
decay_mult: 1
}
param {
lr_mult: 2
decay_mult: 0
}
inner_product_param {
num_output: 2
weight_filler {
type: "gaussian"
std: 0.01
}
bias_filler {
type: "constant"
value: 0
}
}
}
layer {
name: "accuracy"
type: "Accuracy"
bottom: "fc8"
bottom: "label"
top: "accuracy"
include {
phase: TEST
}
}
layer {
name: "loss"
type: "SoftmaxWithLoss"
bottom: "fc8"
bottom: "label"
top: "loss"
}
I0426 15:49:29.687003 28667 layer_factory.hpp:77] Creating layer val-data
I0426 15:49:29.731034 28667 db_lmdb.cpp:35] Opened lmdb /home/fei/digits/digits/jobs/20180415-214315-4313/val_db
I0426 15:49:29.731067 28667 net.cpp:84] Creating Layer val-data
I0426 15:49:29.731111 28667 net.cpp:380] val-data -> data
I0426 15:49:29.731127 28667 net.cpp:380] val-data -> label
I0426 15:49:29.731137 28667 data_transformer.cpp:25] Loading mean file from: /home/fei/digits/digits/jobs/20180415-214315-4313/mean.binaryproto
I0426 15:49:29.732558 28667 data_layer.cpp:45] output data size: 32,3,110,110
I0426 15:49:29.761826 28667 net.cpp:122] Setting up val-data
I0426 15:49:29.761848 28667 net.cpp:129] Top shape: 32 3 110 110 (1161600)
I0426 15:49:29.761854 28667 net.cpp:129] Top shape: 32 (32)
I0426 15:49:29.761858 28667 net.cpp:137] Memory required for data: 4646528
I0426 15:49:29.761865 28667 layer_factory.hpp:77] Creating layer label_val-data_1_split
I0426 15:49:29.761878 28667 net.cpp:84] Creating Layer label_val-data_1_split
I0426 15:49:29.761883 28667 net.cpp:406] label_val-data_1_split <- label
I0426 15:49:29.761893 28667 net.cpp:380] label_val-data_1_split -> label_val-data_1_split_0
I0426 15:49:29.761904 28667 net.cpp:380] label_val-data_1_split -> label_val-data_1_split_1
I0426 15:49:29.761999 28667 net.cpp:122] Setting up label_val-data_1_split
I0426 15:49:29.762008 28667 net.cpp:129] Top shape: 32 (32)
I0426 15:49:29.762013 28667 net.cpp:129] Top shape: 32 (32)
I0426 15:49:29.762017 28667 net.cpp:137] Memory required for data: 4646784
I0426 15:49:29.762020 28667 layer_factory.hpp:77] Creating layer conv1
I0426 15:49:29.762033 28667 net.cpp:84] Creating Layer conv1
I0426 15:49:29.762037 28667 net.cpp:406] conv1 <- data
I0426 15:49:29.762045 28667 net.cpp:380] conv1 -> conv1
I0426 15:49:29.764864 28667 net.cpp:122] Setting up conv1
I0426 15:49:29.764884 28667 net.cpp:129] Top shape: 32 32 26 26 (692224)
I0426 15:49:29.764889 28667 net.cpp:137] Memory required for data: 7415680
I0426 15:49:29.764902 28667 layer_factory.hpp:77] Creating layer relu1
I0426 15:49:29.764911 28667 net.cpp:84] Creating Layer relu1
I0426 15:49:29.764915 28667 net.cpp:406] relu1 <- conv1
I0426 15:49:29.764924 28667 net.cpp:367] relu1 -> conv1 (in-place)
I0426 15:49:29.765492 28667 net.cpp:122] Setting up relu1
I0426 15:49:29.765507 28667 net.cpp:129] Top shape: 32 32 26 26 (692224)
I0426 15:49:29.765511 28667 net.cpp:137] Memory required for data: 10184576
I0426 15:49:29.765516 28667 layer_factory.hpp:77] Creating layer norm1
I0426 15:49:29.765527 28667 net.cpp:84] Creating Layer norm1
I0426 15:49:29.765532 28667 net.cpp:406] norm1 <- conv1
I0426 15:49:29.765538 28667 net.cpp:380] norm1 -> norm1
I0426 15:49:29.766569 28667 net.cpp:122] Setting up norm1
I0426 15:49:29.766587 28667 net.cpp:129] Top shape: 32 32 26 26 (692224)
I0426 15:49:29.766592 28667 net.cpp:137] Memory required for data: 12953472
I0426 15:49:29.766597 28667 layer_factory.hpp:77] Creating layer pool1
I0426 15:49:29.766605 28667 net.cpp:84] Creating Layer pool1
I0426 15:49:29.766610 28667 net.cpp:406] pool1 <- norm1
I0426 15:49:29.766619 28667 net.cpp:380] pool1 -> pool1
I0426 15:49:29.766681 28667 net.cpp:122] Setting up pool1
I0426 15:49:29.766690 28667 net.cpp:129] Top shape: 32 32 24 24 (589824)
I0426 15:49:29.766693 28667 net.cpp:137] Memory required for data: 15312768
I0426 15:49:29.766696 28667 layer_factory.hpp:77] Creating layer conv2
I0426 15:49:29.766711 28667 net.cpp:84] Creating Layer conv2
I0426 15:49:29.766716 28667 net.cpp:406] conv2 <- pool1
I0426 15:49:29.766737 28667 net.cpp:380] conv2 -> conv2
I0426 15:49:29.770644 28667 net.cpp:122] Setting up conv2
I0426 15:49:29.770670 28667 net.cpp:129] Top shape: 32 64 11 11 (247808)
I0426 15:49:29.770675 28667 net.cpp:137] Memory required for data: 16304000
I0426 15:49:29.770695 28667 layer_factory.hpp:77] Creating layer relu2
I0426 15:49:29.770709 28667 net.cpp:84] Creating Layer relu2
I0426 15:49:29.770714 28667 net.cpp:406] relu2 <- conv2
I0426 15:49:29.770721 28667 net.cpp:367] relu2 -> conv2 (in-place)
I0426 15:49:29.771360 28667 net.cpp:122] Setting up relu2
I0426 15:49:29.771369 28667 net.cpp:129] Top shape: 32 64 11 11 (247808)
I0426 15:49:29.771374 28667 net.cpp:137] Memory required for data: 17295232
I0426 15:49:29.771378 28667 layer_factory.hpp:77] Creating layer conv3
I0426 15:49:29.771421 28667 net.cpp:84] Creating Layer conv3
I0426 15:49:29.771426 28667 net.cpp:406] conv3 <- conv2
I0426 15:49:29.771435 28667 net.cpp:380] conv3 -> conv3
I0426 15:49:29.787513 28667 net.cpp:122] Setting up conv3
I0426 15:49:29.787537 28667 net.cpp:129] Top shape: 32 64 9 9 (165888)
I0426 15:49:29.787542 28667 net.cpp:137] Memory required for data: 17958784
I0426 15:49:29.787559 28667 layer_factory.hpp:77] Creating layer relu3
I0426 15:49:29.787569 28667 net.cpp:84] Creating Layer relu3
I0426 15:49:29.787575 28667 net.cpp:406] relu3 <- conv3
I0426 15:49:29.787582 28667 net.cpp:367] relu3 -> conv3 (in-place)
I0426 15:49:29.788455 28667 net.cpp:122] Setting up relu3
I0426 15:49:29.788466 28667 net.cpp:129] Top shape: 32 64 9 9 (165888)
I0426 15:49:29.788470 28667 net.cpp:137] Memory required for data: 18622336
I0426 15:49:29.788475 28667 layer_factory.hpp:77] Creating layer fc7
I0426 15:49:29.788486 28667 net.cpp:84] Creating Layer fc7
I0426 15:49:29.788504 28667 net.cpp:406] fc7 <- conv3
I0426 15:49:29.788513 28667 net.cpp:380] fc7 -> fc7
I0426 15:49:29.852255 28667 net.cpp:122] Setting up fc7
I0426 15:49:29.852278 28667 net.cpp:129] Top shape: 32 512 (16384)
I0426 15:49:29.852283 28667 net.cpp:137] Memory required for data: 18687872
I0426 15:49:29.852294 28667 layer_factory.hpp:77] Creating layer relu7
I0426 15:49:29.852306 28667 net.cpp:84] Creating Layer relu7
I0426 15:49:29.852311 28667 net.cpp:406] relu7 <- fc7
I0426 15:49:29.852319 28667 net.cpp:367] relu7 -> fc7 (in-place)
I0426 15:49:29.853456 28667 net.cpp:122] Setting up relu7
I0426 15:49:29.853469 28667 net.cpp:129] Top shape: 32 512 (16384)
I0426 15:49:29.853473 28667 net.cpp:137] Memory required for data: 18753408
I0426 15:49:29.853478 28667 layer_factory.hpp:77] Creating layer drop7
I0426 15:49:29.853487 28667 net.cpp:84] Creating Layer drop7
I0426 15:49:29.853492 28667 net.cpp:406] drop7 <- fc7
I0426 15:49:29.853499 28667 net.cpp:367] drop7 -> fc7 (in-place)
I0426 15:49:29.853559 28667 net.cpp:122] Setting up drop7
I0426 15:49:29.853567 28667 net.cpp:129] Top shape: 32 512 (16384)
I0426 15:49:29.853571 28667 net.cpp:137] Memory required for data: 18818944
I0426 15:49:29.853575 28667 layer_factory.hpp:77] Creating layer fc8_retrain_retrain_retrain_retrain
I0426 15:49:29.853583 28667 net.cpp:84] Creating Layer fc8_retrain_retrain_retrain_retrain
I0426 15:49:29.853588 28667 net.cpp:406] fc8_retrain_retrain_retrain_retrain <- fc7
I0426 15:49:29.853596 28667 net.cpp:380] fc8_retrain_retrain_retrain_retrain -> fc8
I0426 15:49:29.853773 28667 net.cpp:122] Setting up fc8_retrain_retrain_retrain_retrain
I0426 15:49:29.853780 28667 net.cpp:129] Top shape: 32 2 (64)
I0426 15:49:29.853785 28667 net.cpp:137] Memory required for data: 18819200
I0426 15:49:29.853797 28667 layer_factory.hpp:77] Creating layer fc8_fc8_retrain_retrain_retrain_retrain_0_split
I0426 15:49:29.853806 28667 net.cpp:84] Creating Layer fc8_fc8_retrain_retrain_retrain_retrain_0_split
I0426 15:49:29.853811 28667 net.cpp:406] fc8_fc8_retrain_retrain_retrain_retrain_0_split <- fc8
I0426 15:49:29.853819 28667 net.cpp:380] fc8_fc8_retrain_retrain_retrain_retrain_0_split -> fc8_fc8_retrain_retrain_retrain_retrain_0_split_0
I0426 15:49:29.853827 28667 net.cpp:380] fc8_fc8_retrain_retrain_retrain_retrain_0_split -> fc8_fc8_retrain_retrain_retrain_retrain_0_split_1
I0426 15:49:29.853885 28667 net.cpp:122] Setting up fc8_fc8_retrain_retrain_retrain_retrain_0_split
I0426 15:49:29.853893 28667 net.cpp:129] Top shape: 32 2 (64)
I0426 15:49:29.853898 28667 net.cpp:129] Top shape: 32 2 (64)
I0426 15:49:29.853900 28667 net.cpp:137] Memory required for data: 18819712
I0426 15:49:29.853904 28667 layer_factory.hpp:77] Creating layer accuracy
I0426 15:49:29.853911 28667 net.cpp:84] Creating Layer accuracy
I0426 15:49:29.853916 28667 net.cpp:406] accuracy <- fc8_fc8_retrain_retrain_retrain_retrain_0_split_0
I0426 15:49:29.853921 28667 net.cpp:406] accuracy <- label_val-data_1_split_0
…
